reconhecimento-desenho-2-0/models/modelo_pytorch.pt (torch, 941609 bytes, 6 tensors)

fc1.weight f4 [256, 784]
00000000: e6d8 75bc 703e a4bc 00b5 793b c559 8bbc
00000010: ceda bbbc 78fb 853b bc3e f4bc fcd3 583c
00000020: 6cd2 a5bc e02e 943a 00a3 8f3c a336 053d
00000030: 9676 06bd 1e25 e93c 50a9 873b b8c1 b53b
00000040: 06dc 37bc a478 3e3c 2cdf d7bc d9f9 0d3d
00000050: 8ab9 a23c 8e92 76bc 005d eeba 9612 f53c
00000060: da94 cdbc c0ab 9b3c 4037 833b 7c40 5e3c
00000070: 4ef8 b43c 3744 dbbc 53f7 e8bd a8c5 ec3d
00000080: 9808 d73e 40f9 a83d abea 743d 2c62 69be
00000090: 91c3 febe 071e 8bbe 05c1 bfbe 68ef bdbe
000000a0: 1c2c 97bd f9b7 0d3e 273f 883e 7001 9a3e
000000b0: fd35 cd3e 8354 0b3f 824e 2d3e 9fd9 1abe
000000c0: f3f6 aabd d46a e6bd 19a2 453e 405b 663e
000000d0: b1e9 0f3f 7cf2 033f 29b9 e23d ab79 023d
000000e0: a008 c93b 5c0f ddbe 6a52 0cbf a5b8 843d
000000f0: 8aa8 fd3e 2e1d 603e 3834 763d cef0 99be
00000100: ef3b 14bf 8f73 d7be 1dca 88be 4f66 65be
00000110: 80e5 2d3d f7f3 9c3b 7d4e eabb c9fa 853d
00000120: 383d 3e3e 103e 5a3e 6a15 003e 96db 05be
00000130: 4bbb bebe db42 533d 81b7 393e c9b4 cd3d
00000140: f901 863e ac2f 903e c5ae 33bd 0c12 0cbd
00000150: 5806 3bbc b7bf 18be b1a9 a5be 7096 523b
00000160: 9159 013e b772 e0bd 4fe6 78be 7f4e b5bd
00000170: 535b 443e df38 373e 7575 f03d 0e0a e1bd
00000180: c5de 21be 67e5 8fbe f6be cdbe 0ad5 adbe
00000190: ca20 59be 7b0a 82bc 091d 2b3e eec6 293e
000001a0: 6878 82be 5532 6dbe 580f 29be fd93 02bc
000001b0: 4d00 323e abdf bfbd 773b c8bd a062 7abc
000001c0: 5673 db3c 98cb 243d 2f5c 08be 1f49 75be
000001d0: ed15 efbd fc88 97bd fab0 0d3e 0021 cf3e
000001e0: 4ae6 863e 32b1 db3d 3a91 9d3c aa4b b2bd
000001f0: d725 24bd 1df4 adbd 37dc 023c 5a27 a1bd
00000200: 85d4 75be c570 42be 1c5f 99bd d02b c43c
00000210: 7f41 e7bd d527 63be c294 14bf 3378 5cbe
00000220: a25c 8dbe a7fb e8be 51a2 e5bd 8ae0 bcbc
00000230: 9a1c af3c 8d18 fd3d 1a2c 3c3b 7328 9c3d
00000240: b5b0 f5bd 7247 30bd b283 783e c438 953d
00000250: 01f9 f1bd 7bcf e1bc 3a02 813d c18e 2ebd
00000260: aded 093e 444e b83d 36b6 253e 77ef 783e
00000270: ad5c c63d 840b ba3c 5bf3 363c c584 bd3c
00000280: fbf0 b03d e15e b03d 0b04 30be 0d66 59be
00000290: 4384 0cbe fb14 d6be fc41 ef3d f0f5 073b
000002a0: 6034 03bc 278e 7b3e 6ded 1f3e 40e9 1c3e
000002b0: e743 253e fde4 f13d 216c b03c 61fb ddbd
000002c0: 081a cdbd 551b a93d 9c33 183e d801 38bd
000002d0: a2d0 543d 4c1c e13d e338 a03d 276e 5b3e
000002e0: ca6c 293e f102 883d c797 f23d 0594 683e
000002f0: 75be a93d 5e59 abbc 54dc 20be 3db4 29bb
00000300: 3d5f 363e ff7b 23be 8df7 90be e075 28bc
00000310: 607c d9bc dfda 143d a820 6c3d a6a1 393e
00000320: 02ce a33d 375d 71bd 08bb 3bbe dd16 7bbe
00000330: 06aa 2dbe 4662 b3bd ac00 bbbe 5643 dbbe
00000340: a18b a0be 7acb 60be 3cd3 913d 639c debd
00000350: 3c30 89be 7baf 4bbe 0292 80be e3b4 933d
00000360: 43a7 aa3d af4e 46be ba32 80be cd29 0abe
00000370: e5c1 af3d 6112 f0bc 5322 b4be f3fb 9ebc
00000380: 8e1e a13c 6984 55be 51cf 5a3e d57d 9d3e
00000390: ae5b 41be 55fe 40be 3193 d4bd 507f f53c
000003a0: f69b 333c de93 d83d 02fd 76bd 98a5 09be
000003b0: 2b09 44be 945b acbd c314 dc3d 640c 93bd
000003c0: 9307 84be b645 c2bc ffa5 32be 4843 f7bd
000003d0: f8b6 673e 07ef b03d bf81 e7bc add3 ae3d
000003e0: 6792 04bd 8e75 17be 3a1c 6fbe d40b 113c
000003f0: d691 c33c 8726 1e3e fff2 5d3e 4227 4b3e
-0.015005326 -0.020049304 0.003810227 -0.017010579 -0.022931483 0.0040888153 -0.02981507 0.013234135
-0.020241939 0.0011305474 0.01753378 0.03252281 -0.032827936 0.028460082 0.0041400567 0.0055467747
-0.011221891 0.011625443 -0.026351534 0.0346621 0.019863863 -0.01504959 -0.0018185675 0.029916089
-0.025095392 0.019002795 0.004004389 0.013565179 0.022091057 -0.026765926 -0.11375298 0.115611374
0.41998744 0.08250666 0.05979411 -0.22791356 -0.4975858 -0.27171347 -0.3745195 -0.37096715
-0.0738146 0.13839711 0.2661068 0.30079222 0.40080252 0.5442583 0.1692448 -0.15122078
-0.08347883 -0.112508446 0.19300117 0.22495747 0.5621596 0.51541877 0.11070473 0.031854313
0.0061350614 -0.4317578 -0.54813254 0.06480531 0.49542648 0.21886131 0.060108393 -0.30066532
-0.5790395 -0.42080352 -0.267167 -0.22402309 0.042455196 0.004789825 -0.00715047 0.06541974
0.1857804 0.21312737 0.12508169 -0.13072047 -0.37252268 0.05157743 0.18136407 0.10044248
0.2617338 0.2816137 -0.043867845 -0.0341969 -0.011415087 -0.14916883 -0.32356027 0.0032133125
0.12631823 -0.1095938 -0.24306606 -0.088528626 0.19175462 0.17892788 0.11741153 -0.10988246
-0.15807636 -0.28104708 -0.40184754 -0.33951598 -0.21203914 -0.015874138 0.16710295 0.16579792
-0.25482488 -0.23163731 -0.1650976 -0.0079698535 0.17382927 -0.09368833 -0.09776967 -0.015282303
0.026788395 0.040233225 -0.13316415 -0.23953675 -0.11674104 -0.073991746 0.13837042 0.40454865
0.26347572 0.10727157 0.019234288 -0.08705838 -0.04007515 -0.084938265 0.007987074 -0.07868834
-0.24006851 -0.1898833 -0.07488844 0.023946673 -0.11291789 -0.22183163 -0.58039486 -0.21530227
-0.27609736 -0.45504496 -0.112126 -0.023056287 0.021375943 0.12358198 0.002871281 0.076249026
-0.11996595 -0.043036886 0.24268988 0.07286218 -0.11815072 -0.027564755 0.06299253 -0.04261661
0.13469572 0.08999303 0.16182789 0.24310099 0.09685645 0.02271057 0.011166419 0.023134599
0.086397134 0.08611847 -0.17189042 -0.21230336 -0.13722329 -0.41812882 0.116825074 0.0020745955
-0.008008093 0.24565946 0.15617914 0.15323353 0.16139184 0.11811254 0.021535935 -0.10838962
-0.10014731 0.08257166 0.14863437 -0.044923633 0.05195678 0.10991725 0.0782335 0.21428739
0.16545406 0.06641186 0.118453555 0.22712715 0.0828828 -0.020916637 -0.15709049 -0.0025894784
0.17809768 -0.1596527 -0.28313866 -0.01028201 -0.026548564 0.036341544 0.05764833 0.1812807
0.07998277 -0.058926787 -0.18333066 -0.2452044 -0.1695939 -0.087589785 -0.3652395 -0.4282481
-0.31356528 -0.2195262 0.07120368 -0.10869672 -0.26794612 -0.19891159 -0.25111395 0.07212236
0.08332684 -0.19365953 -0.250387 -0.13492508 0.08581904 -0.029305639 -0.35182437 -0.019407248
0.01966789 -0.20851292 0.21368147 0.30760065 -0.1888263 -0.1884702 -0.10379637 0.029967934
0.010962477 0.105750784 -0.06029988 -0.13442075 -0.19144122 -0.08415905 0.107461475 -0.07180098
-0.2578703 -0.023714881 -0.17446135 -0.1207338 0.22628391 0.08639341 -0.02826011 0.08536468
-0.032366183 -0.14790937 -0.23350611 0.008852918 0.023873251 0.15444385 0.21674727 0.19839194

fc1.bias f4 [256]
00000000: 2ba4 ac3d 1543 b03d 0c49 703d 6a61 94bd
00000010: 3934 923e 247d 4cbe d36f c6be 1764 4f3e
00000020: eae9 fe3e 48d7 903e 5832 713e be5e b1bd
00000030: a485 20bd c889 ae3d 6467 9abc 325e c43e
00000040: 34b8 33bd 89fc 56bd d46f 72bd f1a1 ebbe
00000050: 1c58 513e f481 afbd 194e 2fbe 9466 073d
00000060: 10b0 63bd 2930 b4be 6fe0 f63d 86f3 eab9
00000070: 4105 0bbf 513d bebd e25e bdbd 4801 203e
00000080: fa43 093d 12b2 3a3e 9f5b 863d a274 1cbd
00000090: b82d a8bc 9343 17bd 8b01 84be 0865 913b
000000a0: f1c5 0abe dce0 42be 29bc 13bf bdf9 86be
000000b0: 2985 383e 5e1b 443e 2bb0 e63d cd58 0d3e
000000c0: 91fd c8bd 1326 cdbc af99 1fbd 904e 993d
000000d0: 6b2d 003e 9710 d03d cfa4 703c 6e3b 73be
000000e0: 3bd8 14bd 8861 583e 3b5f 5a3d 4b7c 9bbd
000000f0: 77dc 05bf 9c6d a83c c32d 073e 2f25 d93b
00000100: 6c60 8bbe 3fd5 2c3e 0cb6 b33d cfd9 903e
00000110: 03c8 1abd bad0 eabb e0c2 823e 871d cd3a
00000120: 2dd3 88bc 61a0 4cbe 97bc 0a3d c4ce 52bd
00000130: 9822 143e 0ce0 c8bd 6489 ac3e 8259 52bd
00000140: b1cc 01be 8d91 8b3d f012 2cbd 3c08 073e
00000150: 4d15 3d3e 307a 9fbc d193 863d f904 01be
00000160: a510 743d c9bf 203c 2a8b 5abd 3774 963e
00000170: 6fa9 a7bd 3000 203e 16d5 4cbd bf05 123d
00000180: db17 78bd ce4c 803d 364d 32bd c4a1 2fbe
00000190: 2a0f 963c 5c4e 88bf 7435 34bb 4165 4c3d
000001a0: 7972 8a3e 9fb4 3a3e bb8f 46bd 3f67 063f
000001b0: 6c75 19bd ae3f 873e a345 4d3e 2141 3f3e
000001c0: 26d9 2d3d d170 72be c68c 253d 85ba 83bd
000001d0: 26ab 5a3e c53d e9bd 8067 593e 55a7 85bb
000001e0: 6fec 163e 5b8b 52bd 7fcf 853d 50a8 da3d
000001f0: ac10 513d 67b8 273d 3b00 0abe 936e eb3d
00000200: 6ecd 1f3e ed7a 13bd 518f 35bf 08ca 873e
00000210: 2818 d83c 63f3 9f3d e1d6 1dbe 2bf8 b4bd
00000220: 8472 2cbd e724 51bd c6b2 06bf 0f14 d8be
00000230: 034a 923d 0d55 763e c368 a93e 16e1 8dbd
00000240: 236a aa3e 7ecd 363e 9d53 4f3e 1aeb 48ba
00000250: 7d6f 1abe c3d7 cc3e 9992 943d 8579 fcbe
00000260: b73a 17be dcb9 773e 51fd 213e 25fe fe3b
00000270: 8c6d 513e 6284 443e bdf0 383e 5c92 303f
00000280: 155b 773d 4aaa 123e 18ad c1bc 3153 91be
00000290: 1f95 b03d 85e3 473c 3734 d8be 950e fe3d
000002a0: e193 2cbf 1b62 5cbd 08b3 97be e8a7 b6bd
000002b0: 4cbf 26bd 00f2 283e 8699 1a3e 29fc a93e
000002c0: 72f1 263e 78d7 57be 5035 35be 157c 2dbe
000002d0: 4082 19be 4590 463e 7ebf 193e 809d 95bd
000002e0: ab5d 3f3e 91a7 593e 5081 5ebe 57cb 743e
000002f0: e490 52bd e2a2 ba3e 2ecb 093e ced2 7c3e
00000300: 8c7b 24b9 e82f 393e 7418 543d 5934 b53e
00000310: f73d 21bf 9f9e 52be 3a4f 353e ccff d1bb
00000320: fa25 74bd c6db cbbc 05b5 0ebd 067f 303e
00000330: df84 09bd 8cea 303d d8dc 813d 8dfb f0bd
00000340: b634 973e 54e6 703e 880d 82bd ba7c 873d
00000350: cdcb fb3c 829a a9bd 70cc 06bf e13a 053e
00000360: 1bb6 493d 927d 6d3e a88c e9bd 8336 73be
00000370: a6c6 5f3c e77e 4bbe e98f 023d 5d9f 2c3f
00000380: 858c 21be d99a 47be fb38 1cbf e95c 1a3e
00000390: 81b2 e7bc cf07 493d b46d 853d e391 49be
000003a0: d715 ea3d ab84 813e 9040 553d 4f84 973e
000003b0: 7760 85be 3780 23be e7f5 283e c9ea a5be
000003c0: 4792 283e c458 0b3e e285 4fbc e84e 2d3e
000003d0: f05e e33d c555 883e a8c3 24be 352f 463d
000003e0: 2c33 b03d 0352 8c3e 9a54 bcbd 6ad3 1abd
000003f0: 89cc a63e 23b2 aabe 50cd 29bd 0974 913d
0.0842975 0.08606545 0.058663413 -0.07245143 0.28555468 -0.19969612 -0.3875719 0.20253025
0.49787837 0.28289247 0.23554361 -0.08660649 -0.03918995 0.085223734 -0.018848129 0.38353115
-0.04387684 -0.05248693 -0.05918868 -0.4602199 0.20443767 -0.085697085 -0.17119636 0.03305681
-0.05558783 -0.35192993 0.12054526 -0.00044813397 -0.5430489 -0.09289039 -0.09246613 0.15625489
0.033512093 0.18231991 0.06560444 -0.038197167 -0.020529613 -0.03692968 -0.25782427 0.0044370927
-0.13552071 -0.1903109 -0.57708985 -0.2636241 0.18019547 0.19151065 0.1126407 0.13803406
-0.09813989 -0.02504257 -0.038964923 0.07485688 0.12517326 0.10159414 0.014687731 -0.2375314
-0.036339026 0.21130955 0.053313475 -0.075920664 -0.5228953 0.020560078 0.1320105 0.006626747
-0.27222002 0.16878222 0.08774957 0.28291175 -0.037788402 -0.0071659954 0.25539303 0.0015649059
-0.016702259 -0.19983055 0.03387126 -0.05146672 0.14466321 -0.098083586 0.3369857 -0.051354893
-0.1267574 0.06814871 -0.042010248 0.13186735 0.18465157 -0.019467443 0.065711625 -0.12599553
0.059586186 0.00981135 -0.053355373 0.2938554 -0.08186614 0.15625072 -0.050007902 0.03565001
-0.060569625 0.06264649 -0.043530665 -0.17151552 0.018317778 -1.0648913 -0.002749768 0.04990125
0.2704046 0.18232964 -0.048476916 0.5250129 -0.037465498 0.2641577 0.20046096 0.18677188
0.042443417 -0.23675849 0.040417455 -0.0643206 0.2135435 -0.11388735 0.21230888 -0.0040787854
0.1473863 -0.05140243 0.06533717 0.10676634 0.05104129 0.040947344 -0.1347665 0.114957
0.15605709 -0.036005903 -0.7092181 0.26521325 0.026378706 0.07810094 -0.15414001 -0.08836397
-0.042101398 -0.051060583 -0.52616537 -0.42202803 0.07143023 0.24055882 0.3308774 -0.06927697
0.332841 0.17851827 0.2024674 -0.00076644274 -0.15081592 0.40008363 0.07254524 -0.49311462
-0.14768492 0.24191993 0.15819289 0.007781761 0.20451945 0.19191125 0.18060584 0.68973327
0.060389597 0.14322773 -0.023642108 -0.28383783 0.086221926 0.012200241 -0.42227337 0.12405125
-0.67413145 -0.0538045 -0.29628778 -0.08918744 -0.04070978 0.16498566 0.15097627 0.33200195
0.16303042 -0.21078289 -0.17696118 -0.16941865 -0.14991093 0.19390972 0.15014455 -0.07305431
0.18688075 0.21255328 -0.21729016 0.23905693 -0.05140771 0.36452395 0.13456413 0.2468979
-0.00015686284 0.18084681 0.051781133 0.353915 -0.62985176 -0.20568322 0.17706004 -0.006408667
-0.05960653 -0.02488507 -0.034840602 0.17235956 -0.03357398 0.04319243 0.06340951 -0.117667295
0.29532403 0.23525363 -0.06350237 0.066155866 0.030736828 -0.08281423 -0.52655697 0.13010742
0.049245935 0.23192433 -0.11403781 -0.23751263 0.013658201 -0.19872628 0.031875525 0.6743067
-0.1577626 -0.19492663 -0.61024445 0.15074505 -0.02828336 0.049079712 0.06515065 -0.19684558
0.11429947 0.2529653 0.052063525 0.2959313 -0.2605016 -0.15966879 0.16500054 -0.3240569
0.1646205 0.1360808 -0.0126661975 0.16924632 0.11102092 0.26627937 -0.16090262 0.048384864
0.0860351 0.2740632 -0.09195824 -0.037799276 0.32577923 -0.33339033 -0.041455567 0.0710221

fc2.weight f4 [128, 256]
00000000: 2d68 003d 33a3 06be d827 5e3e 4ae0 a13e
00000010: 2b63 843e a39a 6f3e ecbd f1be 7c5e 66be
00000020: b43b c13e 5bd6 72be 2bac 653e 0b0c fc3c
00000030: dc81 e63d 1315 893e 17ba b33e 55e3 cdbe
00000040: 10e2 43bd e651 8c3e 4637 923d e8b2 863d
00000050: 9eb1 c93d bc8b b83d 2540 993d 04b0 c8be
00000060: 3e8f 943e 5a46 d83c 7294 1bbd 290f e93c
00000070: bc02 e6be 6135 93bd 87a8 02be a4ec 9b3d
00000080: 1a32 633e c9cd 5f3e f137 3d3d 66b6 7f3b
00000090: c0bd 35be b5a3 c03a 436b 9d3d fe34 593d
000000a0: 574b 233e bd69 b3bd 1407 08be bbb4 d3bc
000000b0: a16c be3c 8b92 19be c1cf eabd c82f 58bd
000000c0: 38ff 1cbe 4c08 243d 80cf 6dbb ae3b 003e
000000d0: fa5d bbbd e93b eabd 2166 f63a 8e0e dfbe
000000e0: 4087 7f3d ab72 843e 7bcd 61be 5023 613d
000000f0: ab07 92bd 133d 0e3c 8a24 8dbd 5158 0e3f
00000100: b1c7 6e3d 4a4b 9d3c ce4a 333e cc82 afbd
00000110: 76bd 3cbe a625 d0bc a94f 06be 85d2 11be
00000120: 6208 e03e a2f2 15bb d635 3fbe f710 dcbd
00000130: 0872 babc ed39 b93d 0a71 8cbe e440 a1be
00000140: 1cb9 8dbd f7e7 7ebe 148e 373d 0486 92bd
00000150: 8184 923e 2708 65bd 17e9 78be 5292 8bbe
00000160: 25be 143e d9b8 acbe da24 f83c 8dd0 41be
00000170: fb07 85bd 975d f3bd c417 9c3d e1b6 1c3e
00000180: c487 bbbe 815b 2b3e 36ee 6bbd eaeb fabd
00000190: e42f 0b3e 5daa b4be 1d9d 143e 91b7 2a3e
000001a0: 3aff e73e 8a44 c63d 96ce 803e 9b6e 473e
000001b0: fe2a b83d 0d4a d2be 6de0 5b3e c200 7a3d
000001c0: 0845 7cbe cf46 5cbe 115c 113e cb6c 463e
000001d0: 19d4 b7bd 1bd7 ad3b 5001 883e d700 66be
000001e0: e730 8f3e 6a4f c63c e2de 66be c875 d5be
000001f0: 256a 783e dd74 ea3c 7478 84bd ba2e 133d
00000200: 96b8 05bf 42d5 e0bd 9937 14bf 204a f8bd
00000210: f801 cdbd df23 c93d a9dd d13d 1140 5d3d
00000220: 02b3 8cbe 282d 893d b474 25be e79e 39be
00000230: f1dd 7abe 69bc bb3c ed52 d5be f566 023d
00000240: 6a70 523d cb41 a63e 5ac8 12be 1010 e5bd
00000250: 587d 22bd 11dc 983e cd94 6f3e 46ec 5dbd
00000260: d67f d3bc f618 023c c469 083e ae8e 78be
00000270: 7183 85be a508 1e3e c1e2 43be 061b 1cbf
00000280: 32fe 413e d580 35bd ff53 33bd 04b0 873d
00000290: aa5b b23d ba35 373e db45 0d3e bcb5 3ebd
000002a0: a404 5c3d 85d0 12be 6cff 213d 97fe 953d
000002b0: 7f22 903e c226 6cbe 1853 e33d 6483 373e
000002c0: 5b51 0d3e 3158 053c 31dc 36be 9ad5 283d
000002d0: dc22 b6bd 6c7b 853d aae1 103e b1eb 0d3d
000002e0: df0b 8cbc 22f2 a23e 43d1 97be 5e10 2abe
000002f0: 135e 5dbd 3106 243e 0614 293e d249 823d
00000300: 92ee d53e 91f1 7dbd b43f ef3d b249 7c3c
00000310: 276d 68bd 668f 13be 624a 73bb c621 6a3e
00000320: 8db8 163d 4776 fabd ed3f 0ebe afa9 cabe
00000330: 068b dfbd 73c8 973e bbc8 3d3e d3d1 2fbe
00000340: 4e40 ddbe e70d 0c3d 907a d03c e325 c0be
00000350: 80d7 eebc a789 94bd 1bfc 553e 9475 4e3e
00000360: 7ba4 27be e73f b6bd b94e a2bc 442f 31be
00000370: 1ff8 7abc ab97 6cbe 4b8b 0bbd c211 2ebd
00000380: ee13 773d 6e04 8e3e 96bf bebc 89e6 f13d
00000390: 74c7 01bd eb53 f9be e087 e6be 4729 13bf
000003a0: 777c bfbe 8030 6b3d 296e 013b 695c 79be
000003b0: afc3 11ba b356 78be 9105 9cbe b471 243e
000003c0: 3045 703e 8d33 8dbe 67e1 71bd c221 ac3c
000003d0: 35b3 57bd b4c1 3b3e 80e1 d6bd 5456 c73d
000003e0: 93f5 14be 920e 1c3c 02a6 29be be97 263d
000003f0: 131d 90be 69d9 d63d a3a5 113d ab0f 4abd
0.03134935 -0.13148193 0.21694887 0.3161643 0.2585691 0.23398833 -0.4721521 -0.2249698
0.37740862 -0.23714583 0.22428958 0.030767461 0.112552375 0.2677389 0.35102913 -0.40212503
-0.047823012 0.27406234 0.07139449 0.065770924 0.09848331 0.09011027 0.07482938 -0.3919679
0.29015535 0.026400734 -0.037983365 0.028449612 -0.4492396 -0.071879156 -0.127596 0.07613495
0.22187081 0.21855845 0.046195928 0.003901863 -0.17748165 0.0014697226 0.07686474 0.053029053
0.15946709 -0.08760402 -0.1328395 -0.025843015 0.023245158 -0.14997308 -0.11465407 -0.052779943
-0.15331733 0.040046975 -0.003628701 0.12522766 -0.09148784 -0.11437208 0.0018798747 -0.43565792
0.062384844 0.25868735 -0.22051041 0.054965317 -0.07130369 0.008681553 -0.06891735 0.5560351
0.05829591 0.01920094 0.17509004 -0.085698694 -0.18431649 -0.025408577 -0.13116325 -0.14240463
0.43756396 -0.0022880216 -0.1867288 -0.10745423 -0.022759452 0.090442516 -0.27429992 -0.3149482
-0.069200724 -0.24893175 0.04481323 -0.07154468 0.28616717 -0.055915978 -0.24307667 -0.2726007
0.1452566 -0.33734778 0.03029101 -0.18927212 -0.06495663 -0.11883085 0.076217204 0.15304138
-0.36627018 0.16734125 -0.057600223 -0.12252028 0.13592488 -0.35286227 0.14513059 0.16671588
0.4531191 0.096810415 0.25157613 0.19475786 0.08992575 -0.4107212 0.2147233 0.06103588
-0.24635708 -0.21511386 0.14195277 0.19377439 -0.08976001 0.0053051836 0.265635 -0.22461258
0.27966997 0.02420779 -0.2254596 -0.41691422 0.24259241 0.028620178 -0.06468287 0.035933234
-0.5223478 -0.10978176 -0.57897335 -0.12123513 -0.10010141 0.09821295 0.102473564 0.054016177
-0.27480322 0.06698066 -0.161578 -0.18127023 -0.24498726 0.02291699 -0.4166483 0.03183647
0.051376738 0.3247207 -0.1433424 -0.11184704 -0.03967032 0.29855397 0.23396607 -0.054180406
-0.025817793 0.007940521 0.13321596 -0.24273178 -0.26076844 0.15432985 -0.19129469 -0.60978734
0.18944624 -0.044312317 -0.043781277 0.06625369 0.0870889 0.17891589 0.13796179 -0.046560034
0.053715363 -0.14337356 0.03955023 0.0732395 0.28151318 -0.2306166 0.11099833 0.17921215
0.13800566 0.008138702 -0.17857434 0.04121933 -0.08893368 0.065176815 0.14148584 0.0346486
-0.017095504 0.31825358 -0.29651842 -0.16607806 -0.054044794 0.16017987 0.16511545 0.06361736
0.41783577 -0.061997954 0.11682072 0.01539843 -0.05674472 -0.14410171 -0.0037123193 0.22864446
0.036797095 -0.12229591 -0.13891573 -0.39582583 -0.109151885 0.29645118 0.18533604 -0.17169885
-0.43213123 0.034192946 0.025449067 -0.37528905 -0.029155493 -0.072528176 0.20896952 0.2016204
-0.16371338 -0.08898907 -0.019812929 -0.17303187 -0.015317946 -0.23104732 -0.034068387 -0.042497404
0.06032174 0.27737755 -0.023284715 0.11811549 -0.031684354 -0.48696837 -0.4502554 -0.5748486
-0.37399647 0.0574193 0.0019749498 -0.24351658 -0.000556047 -0.24251823 -0.30472997 0.16059
0.23463893 -0.27578393 -0.05905285 0.02101219 -0.05266114 0.1833561 -0.104922295 0.09733263
-0.14546804 0.009524958 -0.16567233 0.040672056 -0.28147182 0.104906864 0.035558354 -0.04933135

fc2.bias f4 [128]
00000000: 4e64 a33d 216b c13d 12e6 63be 11c9 873e
00000010: f7cd 873e 3928 f2bc 0fa5 81be d359 67be
00000020: 2585 94bd 692c fdbd 1d1d 21bc 47b8 e33e
00000030: e41f 673e 9344 95bd c5a5 b2be d56f 0e3f
00000040: 8c94 773e c432 3bbd 6299 10be 05fe 6bbd
00000050: 09dd a33e 22ba 943e e3a6 b63e 3518 06bd
00000060: b351 983e 2e56 02be c14b 8b3e 812f 0fbe
00000070: a91b 1abe 6d11 bc3d 10ed 773e 6730 a6bd
00000080: bdb7 e33e 87de bd3c 5524 023d 9a5f 52bc
00000090: 9de0 78be ac98 82bd b725 f3bd 5da0 933d
000000a0: 0def ad3e 632b b73e baf7 1fbe a1bc 4c3e
000000b0: b6d6 61bd 6b6c 2f3d 90fb 9f3d 37ba bc3e
000000c0: eca8 7cbe 0e8c a03e ae99 86bd 1113 e83c
000000d0: 46b8 1bbe 9b30 f93d a9a9 d3bc dfe7 a2be
000000e0: d9db 1c3e 9b80 96bd ce19 37be 60a4 9a3d
000000f0: 6da2 a93e 5ddf 27be f62a ab3e cfae 133c
00000100: 8912 b2bd ce61 c4bc b033 033f 0e1d 76bd
00000110: bbd3 8bbe 53f2 a1bd 87fe 1abd 10c2 dfbc
00000120: 41b6 96bc 3990 18be 7a01 ffbd d185 3d3e
00000130: 54b0 74be 42ab 73bd 8023 8bbd 65fe d1bd
00000140: 640f 09be 096e 1dbd e750 5bbe 7a59 043f
00000150: 8c82 ccbd 0257 c53d 1e0a 0a3e eb73 383e
00000160: 169f 1c3e 4ab3 e23d c891 983d 03d8 e83d
00000170: a1e9 063e 6304 cc3d 63f6 79be 19eb ab3e
00000180: b84d cf3e b930 26bd 6aff 3abe bcd8 333e
00000190: 3671 e73b ee58 a73e e0a4 4f3e 5ce0 00bd
000001a0: 9338 763e 7201 5e3e 86a7 27be 6e06 e2bc
000001b0: bdee 523e 5e94 bf3c 236a 95bd d617 893e
000001c0: bab4 57bd 3f75 643e 51f1 8f3e 8253 963e
000001d0: c3fd 68be e3f3 cfbd 3324 c33e d799 85bc
000001e0: 07f4 a93e e872 12be 4b81 d63e 7fbd d53d
000001f0: 1097 f9bd ea48 003f 0dfa 773e 2972 7d3e
0.07978116 0.09444261 -0.22255734 0.2652059 0.26524326 -0.029560195 -0.25321242 -0.22592859
-0.07251958 -0.12361986 -0.009833601 0.4447653 0.22570759 -0.0728847 -0.34892097 0.5563939
0.2417776 -0.04570271 -0.14121011 -0.0576153 0.32004574 0.29048258 0.356742 -0.03273793
0.29749832 -0.12728187 0.27206233 -0.13982965 -0.15049614 0.09183011 0.24211526 -0.08114701
0.4447612 0.023177398 0.03177293 -0.012840176 -0.24304433 -0.06376776 -0.11872428 0.07208321
0.33971444 0.3577529 -0.15621844 0.19993831 -0.055136405 0.042828005 0.078116536 0.3686082
-0.24673814 0.31356853 -0.06572281 0.028329404 -0.15207013 0.12167474 -0.025837736 -0.3181753
0.1531824 -0.07348748 -0.17880937 0.07550883 0.33131734 -0.163938 0.33431214 0.009013846
-0.086949416 -0.023972418 0.51250744 -0.060086302 -0.27309975 -0.07907548 -0.037840392 -0.027314216
-0.018397452 -0.14898767 -0.124514535 0.18508078 -0.23895389 -0.059489496 -0.067938805 -0.102536
-0.13384777 -0.038435016 -0.2141758 0.5169903 -0.09985837 0.09635736 0.13480422 0.18012969
0.15295061 0.11069353 0.074496806 0.11369326 0.1317506 0.09961774 -0.24410395 0.33577803
0.40488982 -0.04057381 -0.18261495 0.17563146 0.0070630563 0.32685035 0.20277739 -0.031463966
0.24045019 0.21680239 -0.16372499 -0.027590957 0.20598884 0.023386177 -0.072956346 0.26775998
-0.05266259 0.22310351 0.28113797 0.29360586 -0.22753052 -0.101539396 0.38113555 -0.016308708
0.3319399 -0.14301646 0.41895518 0.10436534 -0.12187016 0.5011126 0.2421648 0.2475058

fc3.weight f4 [6, 128]
00000000: 25c3 ca3e 9935 d83d 2f0a 41bd 0b00 efbe
00000010: bd23 453f 2849 f9be da72 60be 1e4b c5be
00000020: 57d6 8cbd b07a b83d 2cda 7ebe fc6f 983d
00000030: 7673 163e b928 0e3d e238 2c3e e60e ffbe
00000040: c07b 673d cd4c 6e3e 3124 063e 95e0 613e
00000050: 6fdc 08bf e517 df3d bf7d 253e ef8f 03be
00000060: da8d 903e 3f9f 943d 781c 5cbe 9606 acbe
00000070: 6e7a a9bc b312 84bd 7276 923e ca87 9bbe
00000080: f402 33bc 5354 073e 3ee3 b9be c1a5 ffbe
00000090: 105c 04be 7981 85bd 4c0c b33d e08a 0e3e
000000a0: c756 a1be a4ab 39be 0cd5 0dbe 47e7 b5be
000000b0: 9f70 d4be 8ab1 ee3d 06e7 56be 3597 7a3e
000000c0: bf3a 2b3e 2c9e 193e 7233 87be 567b 02be
000000d0: 693b c2be aa6b 063e 8f7a 2a3e f009 a7bd
000000e0: 3374 2dbe fede a13c 6f4f 28be 8787 dc3d
000000f0: 0478 07bb dc08 a0be 0808 6fbe f951 413e
00000100: d736 793e ff9d d6be 89c6 513e aab5 7d3e
00000110: 6d52 08bf 60f0 b9be fe84 073e 8e8c 07bf
00000120: f401 08bd 3b38 803d e9a1 f7bd db98 1e3e
00000130: 08ae 15bf 321e 27be f181 c23d c495 343d
00000140: debe 933d f82d a5be 973e 633e ccf8 9cbe
00000150: c8cd 0b3d 24c6 b93d b0d4 fcbd b6bf 373e
00000160: 0a95 5bbe 10d9 d23c b5a1 693d d042 6bbe
00000170: 3577 c23d 5824 15be f17e 97bd 0043 013f
00000180: 852a 273d 5be9 b73e 27df efbe 56a5 9a3d
00000190: 35d3 e73d 5332 10bf 99d5 bc3d e469 053e
000001a0: 758a 92be dc44 48be bac8 7e3c 4ef0 95bd
000001b0: 78e9 02bf 703f 313f 81aa bb3d bf66 89be
000001c0: e76f 96be 0ffa 4cbe f334 413e 9ec1 353e
000001d0: 2a07 cabd 3638 123c 3e41 ac3e 2ac7 08bf
000001e0: 5ed4 5ebe eda2 883d cea0 55be 3cb8 afbe
000001f0: dac2 f13e 69a1 1abf fda2 a9be f71e 2abe
00000200: c649 c7bd 5303 0a3e 3aff c93d b3e3 0dbf
00000210: b39c 1dbf 5b86 583e acf4 a2be eb87 083f
00000220: 9776 48be c4b8 e83d b4b1 cfbe c12e b8be
00000230: 1b83 e7bd f317 64be 7615 d83d 972a bbbe
00000240: 7278 cbbe f6f6 99be 50ad af3d 3663 d33d
00000250: f700 e7bd 6cb6 973d 8d81 34be 2109 973e
00000260: 6445 febe 4c76 973d eaf3 9ebe 1f0a 913d
00000270: f28b 1cbe 7b48 3bbe 4c5d 98be 96c6 813e
00000280: 5aba 3fbe ca12 ac3d a0eb 5b3e 818f 85be
00000290: f621 063e d88d 1c3d 486e 13bf 8550 03bf
000002a0: ee24 323c 6f83 b5bc 0f9d 7ebe 781c 9bbe
000002b0: 3703 053e c9e3 3c3d 1bee 02bf ac18 6e3d
000002c0: 5393 c73d 0dcc 08bd f67b 323e 9afa ce3e
000002d0: 5fc8 823e ad4c b8be c288 003e d7ba c7be
000002e0: 7c91 8dbe cc70 8dbd 1492 4c3e 82c7 f93d
000002f0: 0375 02bf 99c2 4c3e 3b54 adbe 22b9 293e
00000300: 7a1e 2dbc 3b65 fe3d 297f c4be 1fe6 1ebf
00000310: ebf4 e1bd d1dc a63e 40d4 953d 1426 0a3e
00000320: 8a12 33bf c478 493d ff0f 3fbe ee2e e53d
00000330: e840 e33d d1cb 403e 45bf 013c e544 db3d
00000340: 1f44 e93d 3416 033e eac2 b5be a0e4 76be
00000350: 0454 0fbf a095 693d cfff 9c3d 818e 95be
00000360: 60bb b4be 25b9 85be a7de 4fbc 670a 11bf
00000370: 7b2e edbd aeed 6ebe 28cd a53d a387 08bf
00000380: 1286 2ebf dc84 b3be 7001 a73e 0da8 863d
00000390: d6a5 cb3d af75 2d3c 4795 be3d 86a1 c23d
000003a0: 2ac6 353e 66d6 5e3e 58cf 253e 42dc b1bd
000003b0: aea2 233e 969f bebe 0adb e53d 7ae2 cf3d
000003c0: 066d 16be 61fc 883c a88d 033e 2d79 97bd
000003d0: 3b68 8cbd a9b7 433c 436d 25bd 4dd1 443e
000003e0: 7658 a5be 6a7a 9c3e 47a0 74be 92b6 a6bd
000003f0: 272d 3f3d 0fd7 7b3c 8577 c3be 5cee c6be
0.39602008 0.10557098 -0.047128852 -0.4667972 0.7700766 -0.48688626 -0.21918812 -0.38533872
-0.068768196 0.09007776 -0.24887913 0.07443234 0.14692482 0.034706805 0.16818574 -0.49816054
0.0565145 0.23271485 0.13099743 0.22058327 -0.53461355 0.108932294 0.1616125 -0.12847875
0.28233224 0.07256936 -0.21495235 -0.33598775 -0.020688262 -0.06448879 0.28605992 -0.30377036
-0.010925997 0.13215761 -0.36306185 -0.49931148 -0.12925744 -0.065188356 0.0874258 0.13920164
-0.31511518 -0.18131882 -0.13850802 -0.35528013 -0.41492173 0.11654957 -0.20986566 0.24471743
0.16721629 0.15001744 -0.26406437 -0.12742361 -0.3793595 0.13127008 0.16648315 -0.08156192
-0.16938858 0.019759651 -0.16436552 0.10768037 -0.00206709 -0.3125676 -0.23342907 0.18878926
0.24337326 -0.41917416 0.20485891 0.2477633 -0.5325077 -0.36316204 0.13234326 -0.52948844
-0.033204988 0.06260725 -0.12091429 0.15487997 -0.58468676 -0.16320112 0.094974406 0.04408814
0.072141394 -0.32261634 0.22191845 -0.30658567 0.034131795 0.090709955 -0.123452544 0.17944226
-0.21443573 0.02573827 0.05703898 -0.22974706 0.09495393 -0.14564645 -0.07397259 0.5049286
0.040812034 0.35920224 -0.4684994 0.075510666 0.113195814 -0.5632679 0.09220428 0.13028675
-0.2862126 -0.19557518 0.015550787 -0.07321225 -0.51137495 0.6923742 0.091633804 -0.26836202
-0.2938225 -0.20017265 0.18867855 0.1774964 -0.09864648 0.008924535 0.33643526 -0.534289
-0.21760699 0.066717006 -0.20862123 -0.34320247 0.47218972 -0.6040254 -0.33132163 -0.16613375
-0.09730868 0.1347783 0.09863134 -0.55425566 -0.6156723 0.21145003 -0.31827295 0.53332394
-0.19576488 0.11363366 -0.40565264 -0.3597317 -0.11304303 -0.22274761 0.10550968 -0.3655593
-0.3974033 -0.3007123 0.085779786 0.10321657 -0.11279481 0.07407841 -0.17627545 0.29499152
-0.49662316 0.0739561 -0.31045467 0.070820086 -0.1528776 -0.18289368 -0.2975868 0.25346822
-0.18723431 0.08402021 0.21476603 -0.26086047 0.13098893 0.03822121 -0.5759015 -0.5129474
0.010873063 -0.022157399 -0.248646 -0.30295157 0.12989508 0.04611567 -0.5114457 0.058128998
0.09744897 -0.033397723 0.174301 0.4042557 0.25543496 -0.35996 0.12552169 -0.39009735
-0.27650058 -0.0690628 0.199776 0.12196256 -0.50959796 0.19996108 -0.33853325 0.16574529
-0.010566348 0.12421652 -0.38378266 -0.62069887 -0.110330425 0.32590345 0.07315874 0.13491088
-0.69950163 0.049187437 -0.18658446 0.11190592 0.11096364 0.1882775 0.007919137 0.107065
0.11389946 0.12801439 -0.3550027 -0.24110651 -0.5598757 0.05702746 0.07665979 -0.29210284
-0.35299206 -0.26117817 -0.012687362 -0.566565 -0.11581131 -0.23332855 0.08095771 -0.53331965
-0.68173325 -0.350623 0.32618284 0.06575022 0.0994374 0.01058714 0.09305816 0.095034644
0.17751375 0.21761474 0.16192377 -0.08684589 0.15980026 -0.3723113 0.11223419 0.10150619
-0.14690027 0.016721906 0.12847006 -0.07396159 -0.06855818 0.011945643 -0.040387403 0.19220467
-0.32294053 0.30562145 -0.23889266 -0.08140291 0.04667392 0.015371098 -0.38177124 -0.3885373

fc3.bias f4 [6]
00000000: a6e4 a33d e66f 413c c3c7 5a3e 1c69 93bc
00000010: 77a5 b33c d787 c0be
0.080025956 0.011806464 0.21365266 -0.017994456 0.021929486 -0.37603638
