reconhecimento-desenho-2-0/models/modelo_pytorch-02.pt (torch, 944169 bytes, 6 tensors)

fc1.weight f4 [256, 784]
0	0x3cf61a66	0.030041885
1	0x3b0a1fe0	0.0021076128
2	0xbab80a40	-0.0014041141
3	0xbcaed443	-0.021341449
4	0xbb1977d0	-0.002341736
5	0x3c98fe36	0.018675905
6	0x39c60180	0.0003776662
7	0xbc28c1f2	-0.010300146
8	0x3aab8c00	0.0013087988
9	0x3cdc7d42	0.026915196
10	0xbd0a9874	-0.033836797
11	0x3d10954b	0.035298627
12	0x3cc55e1e	0.02409273
13	0xbcb62c58	-0.022237942
14	0xbd01695e	-0.031594627
15	0x3c31767c	0.0108314715
16	0xbc846013	-0.016159093
17	0xbc808e9e	-0.015693005
18	0x3cb1dde6	0.021712255
19	0xbcc01fea	-0.023452718
20	0xbcb26b1e	-0.021779593
21	0x3c914eda	0.017737795
22	0xbce30a53	-0.027714884
23	0x3c57bd38	0.013167672
24	0x3b2b1280	0.0026103556
25	0x3a81b120	0.0009894706
26	0xbc86b123	-0.016441887
27	0xbd05ddc7	-0.032682206
28	0x39bd2e80	0.00036083534
29	0x3ea4b808	0.32171655
30	0xbcafe79b	-0.021472743
31	0x3f7573a7	0.95879596
32	0x3ec9364d	0.3929924
33	0xbf5cd5ad	-0.86263543
34	0x3b7cc27f	0.0038568077
35	0x3f26b9dd	0.65127355
36	0xbe574973	-0.21024112
37	0x3f2d8e5b	0.6779534
38	0xbe68a51b	-0.22719233
39	0xbfa7c7f3	-1.3107895
40	0xbf5e5de8	-0.8686204
41	0xbfb51fb7	-1.4150304
42	0xbc00473d	-0.0078294845
43	0x3ed85996	0.4225585
44	0xbe7437ac	-0.23849362
45	0x3f1b2713	0.606065
46	0xbf6896b2	-0.9085494
47	0xbea8ce57	-0.32969925
48	0xbf4d170e	-0.80113304
49	0xbf5fc56c	-0.87410617
50	0xbf374482	-0.7158891
51	0xbf9d0a8c	-1.2268844
52	0x3e993ee5	0.29930797
53	0x3f778858	0.9669242
54	0xbd7f2c2d	-0.06229799
55	0x3cce166e	0.02515718
56	0x3c080b70	0.008303508
57	0xbf081553	-0.5315754
58	0x3c308b47	0.010775394
59	0xbe78398f	-0.24240707
60	0x3eb06391	0.34450963
61	0x3e3abb2e	0.18235466
62	0x3f26c774	0.6514809
63	0x3f3946d2	0.7237369
64	0xbdb451da	-0.088046744
65	0xbe11b41f	-0.14228867
66	0xbf4a0bbb	-0.7892415
67	0xbf9b56cd	-1.2135864
68	0xbfbca206	-1.4736946
69	0xbfeb5ecb	-1.8388304
70	0xbf495802	-0.78649914
71	0xbe825b46	-0.2546026
72	0x3ee83a09	0.45356777
73	0x3ebe05dd	0.37113848
74	0x3dd0d337	0.10196536
75	0xbe604f8f	-0.21905349
76	0xbe6e8a43	-0.2329493
77	0x3a05f3ba	0.00051098655
78	0xbee99210	-0.4561925
79	0xbf039cfe	-0.51411426
80	0xbdecce74	-0.11562815
81	0xbe6af0d2	-0.22943428
82	0xbf789943	-0.9710886
83	0xbcdbc6b3	-0.026828146
84	0xbc13626a	-0.008995632
85	0xbf796741	-0.9742318
86	0x3e30c4c0	0.17262554
87	0x3cb27358	0.021783516
88	0x3edf0eff	0.4356613
89	0xbd781347	-0.06056526
90	0xbe8dff5c	-0.27733886
91	0x3d5e22ce	0.05423241
92	0x3f413b41	0.7548104
93	0x3f689604	0.90853906
94	0xbd231b4a	-0.039820947
95	0xbf4e3af6	-0.8055872
96	0xbff9bc10	-1.9510517
97	0xbfebf0b9	-1.8432838
98	0xbeff0ecc	-0.49815977
99	0x3f50ce76	0.81565034
100	0x3f5f0f8d	0.87133104
101	0x3f7207f9	0.94543415
102	0x3e76c697	0.24099194
103	0xbec4f5c7	-0.38468763
104	0x3dba139b	0.09085771
105	0x3e66ad1b	0.22526972
106	0xbed99ea5	-0.4250385
107	0x3ef377f0	0.47552443
108	0xbd899a12	-0.0671884
109	0xbf603947	-0.875874
110	0xbfa3c5a4	-1.279469
111	0x3cd61daa	0.026137192
112	0xbc794580	-0.015214324
113	0xbd0f0695	-0.034918386
114	0xbcfc5eb5	-0.030806879
115	0xbf6b108c	-0.91822124
116	0x3d3721fe	0.04471015
117	0xbe8b1d26	-0.27170676
118	0xbd044242	-0.03228975
119	0x3e90be16	0.28270024
120	0x3ea8b8f1	0.329536
121	0x3f3e7d19	0.74409634
122	0x3e0b4d96	0.13603815
123	0xbf7567e8	-0.95861673
124	0xc0062110	-2.095768
125	0xbff52842	-1.9152911
126	0xbe407223	-0.1879354
127	0x3f68487a	0.9073559
128	0x3f16b656	0.5887197
129	0x3f6fae5e	0.9362544
130	0x3e9f93e1	0.3116751
131	0xbda4cb31	-0.08046568
132	0x3e80848a	0.2510112
133	0xbda498ee	-0.080369815
134	0xbf141ccf	-0.5785646
135	0xbdc1e27c	-0.094670266
136	0xbeb890ed	-0.3604807
137	0xbf3a77d5	-0.728391
138	0xbeb0920f	-0.34486434
139	0x3b94eac8	0.0045445897
140	0x3c0d3658	0.008618914
141	0x3e86d886	0.2633707
142	0x3cb1e1fd	0.021714205
143	0xbeb5bc46	-0.35495204
144	0x3edf7360	0.43642712
145	0x3e0b0094	0.1357444
146	0xbdc4a4ce	-0.096017465
147	0x3f2f8ee8	0.6857743
148	0x3ee42cc1	0.44565395
149	0x3f2fb016	0.6862806
150	0x3edf7316	0.4364249
151	0xbe62b730	-0.22140193
152	0xc00dd76e	-2.2162738
153	0xbffd282e	-1.9777887
154	0x3e7ea2fe	0.24866864
155	0x3f5f34e7	0.871901
156	0x3e471cbc	0.19444555
157	0x3f2dc4b0	0.67878246
158	0x3f0a5988	0.54042864
159	0x3dd31c47	0.10308128
160	0xbca51994	-0.020153798
161	0xbe88ebeb	-0.2674249
162	0x3e5d8754	0.21633655
163	0xbe5161e0	-0.20447493
164	0xbf77e29d	-0.9683016
165	0xbee9a0c7	-0.45630476
166	0x3e7ad1cf	0.24494098
167	0xbcf92b7c	-0.030416243
168	0xbc03974e	-0.008031679
169	0xbe0b8780	-0.13625908
170	0x3e8b0fa5	0.27160373
171	0x3e6022cb	0.21888272
172	0x3e2acac5	0.16678913
173	0x3b105030	0.0022020452
174	0x3e719659	0.2359251
175	0x3e67baeb	0.22629897
176	0xbe116e7b	-0.14202301
177	0x3ec6551a	0.38736802
178	0x3e817373	0.25283393
179	0x3e1deb36	0.15421757
180	0xbff0c263	-1.8809322
181	0xc0449bee	-3.0720172
182	0x3d99be0c	0.07506952
183	0x3f73a536	0.95173967
184	0x3f219ab6	0.63126695
185	0x3ed90d52	0.42392975
186	0x3ea22838	0.3167131
187	0x3b144271	0.002262261
188	0xbdb9c30f	-0.090704076
189	0x3e2c5eba	0.1683301
190	0x3e923a47	0.28560087
191	0xbe4ee98f	-0.20206283
192	0x39fe5fc9	0.0004851802
193	0x3da4e368	0.08051187
194	0xbe0ccf75	-0.13751014
195	0x3b7e0220	0.003875859
196	0x3cacce48	0.021094456
197	0xbe2272d2	-0.15864113
198	0xbe74fde7	-0.23924981
199	0x3be7f8fa	0.007079241
200	0xbe137e6e	-0.14403698
201	0x3e2ddf27	0.16979657
202	0x3dccf2ed	0.10007272
203	0x3ddbebe7	0.10738354
204	0x3f002ebd	0.50071317
205	0x3effbbe7	0.49948046
206	0x3ea4ca7a	0.32185727
207	0x3f42b499	0.7605682
208	0xbfbee5d1	-1.4913884
209	0xc03c3287	-2.940584
210	0x3de79e21	0.113094576
211	0x3fbb2c25	1.4622847
212	0x3f82bd12	1.021395
213	0x3ee7a119	0.45240095
214	0xbde72eab	-0.11288198
215	0x3c8846a2	0.016635243
216	0x3d93cc91	0.07216752
217	0xbeb3b0e5	-0.35095897
218	0xbe6eb852	-0.233125
219	0xbf0d23ef	-0.55132955
220	0x3d661b4f	0.056178387
221	0xbe5c8756	-0.21536002
222	0xbf8e23b4	-1.1104646
223	0x3cc5d27a	0.024148215
224	0xbc825923	-0.015911644
225	0xbf40a369	-0.75249344
226	0xbe4489c9	-0.19193186
227	0xbe4b7b8e	-0.19871351
228	0x3e37bb63	0.17942576
229	0x3d531fd9	0.051544044
230	0xbd6a2950	-0.057168305
231	0x3e90025f	0.2812681
232	0x3f1fda3b	0.6244237
233	0x3f16c89a	0.58899844
234	0x3dc124b1	0.094308265
235	0x3ea481af	0.3213019
236	0xbfa8efa3	-1.3198131
237	0xc047c428	-3.1213474
238	0x3e639a6d	0.22226878
239	0x3fc0e3bf	1.5069503
240	0x3f1197a8	0.56872034
241	0xbdc7f39d	-0.097632624
242	0x3e6face7	0.23405801
243	0xbe22cd20	-0.15898561
244	0xbddea238	-0.108707845
245	0xbe0068fd	-0.1254005
246	0x3eb2fc9d	0.34958354
247	0xbe22f5dc	-0.159141
248	0x3e56c121	0.2097211
249	0x3db612e7	0.08890324
250	0x3d519ead	0.051176716
251	0xbc84dafc	-0.016217701
252	0xbb310600	-0.0027011633
253	0xbe7d4f2e	-0.24737236
254	0xbd737860	-0.05944097
255	0x3e790a1f	0.24320267

fc1.bias f4 [256]
0	0x3d7502ac	0.059817
1	0x4023940c	2.555911
2	0xbfe4861d	-1.7853428
3	0xbf08e43c	-0.5347326
4	0x3efa98c2	0.4894467
5	0x3f0a03fe	0.5391234
6	0x3fbcc0b9	1.4746314
7	0x3f099d7d	0.53755933
8	0xbf3391b7	-0.7014422
9	0xbf798583	-0.9746935
10	0xbf387719	-0.7205673
11	0x3fddefd2	1.7338812
12	0x3ecfd2b7	0.4059045
13	0xbe54c807	-0.2077943
14	0xbe864084	-0.26221097
15	0x4003f96b	2.0620983
16	0xbf976a69	-1.1829349
17	0x3f5603cb	0.8359954
18	0x3f907ed1	1.1288701
19	0x3da82978	0.082110345
20	0x3e4300f8	0.19043338
21	0xbf3c5177	-0.73561805
22	0x3f7d4099	0.98926693
23	0x3f264742	0.6495248
24	0x3f63b268	0.889441
25	0xbe97767e	-0.2958259
26	0xbe8f59bb	-0.27998146
27	0x3fde9808	1.7390146
28	0xbdf38ad2	-0.11891712
29	0xbef55031	-0.47912744
30	0x3fc5f8f0	1.5466595
31	0xbecffea5	-0.40623966
32	0x3e99d134	0.30042422
33	0xc058cd10	-3.387516
34	0x3f223341	0.6335946
35	0xbdfc6332	-0.123236075
36	0x3e73c2ac	0.2380473
37	0xbf29d901	-0.66346747
38	0x3f5d4145	0.8642772
39	0xbe404d14	-0.18779403
40	0x3e587b37	0.21140753
41	0xbf00580f	-0.50134367
42	0xbf641ae9	-0.8910356
43	0x3e7b5766	0.24545059
44	0x3f60a685	0.8775409
45	0x40628c92	3.5398297
46	0xbfa0da07	-1.2566537
47	0x40150f55	2.3290608
48	0x3e9a62a6	0.30153388
49	0xbf183cf6	-0.5946802
50	0x3db427e7	0.08796673
51	0xbf2e9b61	-0.6820584
52	0x3f5ea182	0.8696519
53	0xbcab5cb6	-0.020918231
54	0xbec9ee9b	-0.39439854
55	0x400216a3	2.0326316
56	0x3fc60938	1.5471563
57	0x3e366f10	0.17815804
58	0xbdf14d59	-0.11782331
59	0x3ee160af	0.44019076
60	0xbf1b331a	-0.6062485
61	0x3ed2e106	0.41187304
62	0x3f8ff150	1.1245518
63	0xbef6414e	-0.480967
64	0x4012c212	2.293095
65	0xbf261ef6	-0.6489099
66	0x3f2711e9	0.65261704
67	0xbf85d588	-1.045579
68	0xbe5bf179	-0.21478833
69	0xbf1aeccc	-0.60517573
70	0x3e3004fa	0.17189398
71	0xbf0baa8b	-0.545571
72	0xbfc26b99	-1.5189086
73	0x3d97bd2d	0.07409129
74	0xbe0afffa	-0.1357421
75	0xbfdf4c3a	-1.7445138
76	0x3eefbcf5	0.4682385
77	0x3fd6fe17	1.6796292
78	0x3ef89899	0.48553923
79	0xbd7f9ea5	-0.062407155
80	0x3f821f59	1.0165817
81	0xbeccfd43	-0.40036973
82	0xbfb6b7f2	-1.4274886
83	0x3f475623	0.7786581
84	0x3db3ae64	0.08773497
85	0xbf63a6cd	-0.8892639
86	0xbf59bcfa	-0.8505398
87	0xbf680c36	-0.9064363
88	0xbf530aae	-0.8243817
89	0xbe02fb30	-0.12791133
90	0x4022f398	2.5461178
91	0xbdf850ee	-0.12124811
92	0xbe670ec2	-0.22564223
93	0xc064c717	-3.5746515
94	0x3b986564	0.0046507586
95	0x3d6a010a	0.057129897
96	0xbfda4100	-1.7051086
97	0xbe6b69b9	-0.22989549
98	0xbf56d416	-0.8391737
99	0xbf8a9a51	-1.0828344
100	0x3f26111d	0.6486986
101	0x400f0645	2.2347577
102	0x3e67a6ac	0.22622174
103	0xbf01a393	-0.5064022
104	0xbf843b3a	-1.0330575
105	0xbf734dad	-0.950404
106	0x3ebc464e	0.36772388
107	0xbf025d84	-0.50923944
108	0xbf89f39e	-1.0777471
109	0xbe462fa8	-0.19354117
110	0xbffe9374	-1.9888749
111	0x3eb10c25	0.34579578
112	0xbf9f2ccf	-1.243555
113	0xbf2fe669	-0.68710953
114	0x3ff4b3a4	1.9117322
115	0x3ff840a8	1.9394732
116	0x3f1563e0	0.5835552
117	0xbf54ac30	-0.8307524
118	0x3ff2fd91	1.8983632
119	0xbdd75d40	-0.10515833
120	0xbdedefac	-0.116179794
121	0x3f54a3a6	0.8306221
122	0xbf407353	-0.7517597
123	0x3f74b98d	0.9559563
124	0x3f7855d0	0.9700594
125	0x3e12e6ec	0.14345902
126	0x3fd515ed	1.6647316
127	0x3ec17a28	0.3778851
128	0x3fdbf1c0	1.7183151
129	0x3d58f6fe	0.052969925
130	0xbf484c3b	-0.7824132
131	0xbeb2bbbf	-0.34908864
132	0x3f3bc500	0.73347473
133	0x3f7852bb	0.97001237
134	0xbdd71645	-0.105022945
135	0xbf70a907	-0.94007915
136	0x3fedd862	1.858166
137	0xbc2298fc	-0.00992417
138	0xbf476a50	-0.77896595
139	0xbf8bab18	-1.0911589
140	0xbf827c75	-1.0194231
141	0xbec1ae75	-0.37828413
142	0x4036d807	2.8569353
143	0xbfc25008	-1.5180674
144	0x3f1bb369	0.60820633
145	0xbeb6ce1f	-0.35704133
146	0xbea41873	-0.32049903
147	0xbfa40337	-1.2813481
148	0xbd93884e	-0.072037324
149	0xbef460f3	-0.47730216
150	0x3f3d23be	0.73882663
151	0xbf7e366e	-0.99301803
152	0x3e9be14d	0.30445328
153	0xbf229f19	-0.63524014
154	0x3dce605a	0.10076971
155	0x400d7ec6	2.2108626
156	0x3dced22a	0.10098679
157	0xc0d12843	-6.5361648
158	0xbfde7658	-1.7379866
159	0xbf33c362	-0.70220006
160	0xbf5d2c2e	-0.8639554
161	0x3cd29930	0.025707811
162	0x3ec92383	0.39284906
163	0x3e481fed	0.19543429
164	0xbf581855	-0.8441213
165	0x3fb0a938	1.3801641
166	0xbcfe2dc5	-0.031027684
167	0xbcd08456	-0.025453728
168	0xbf9662dd	-1.1748921
169	0xbfa5a33d	-1.2940441
170	0x3f94df5f	1.1630667
171	0x3e8df177	0.27723286
172	0x3fed2eb0	1.8529873
173	0xbf41d8ee	-0.75721633
174	0xbecc1615	-0.39860597
175	0x3f862420	1.0479774
176	0xbe27f6e5	-0.16402777
177	0xbee11052	-0.43957764
178	0xbf02daa0	-0.51114845
179	0x3fa297f1	1.2702619
180	0xbe0c2847	-0.1368724
181	0x3f22d8d1	0.63612086
182	0x3e00b9d7	0.12570892
183	0xc0a1aaf5	-5.052119
184	0x3ee24232	0.44191128
185	0x3f1f093b	0.6212346
186	0xbef1f4d9	-0.47257116
187	0x3fbf70bf	1.4956282
188	0x3f274a3d	0.65347654
189	0xbfc32e7e	-1.5248563
190	0xbeece5a1	-0.46268943
191	0xc04052bd	-3.00505
192	0xc027cca8	-2.6218662
193	0xbf614916	-0.88002145
194	0x3f0a39c4	0.53994393
195	0xbfa07e90	-1.2538624
196	0x3fd9afa6	1.7006729
197	0xbf2c6c0c	-0.67352366
198	0x3e2e6a33	0.170327
199	0xbfb822c9	-1.4385616
200	0xbb476551	-0.003042538
201	0x3f4724c1	0.77790457
202	0xbf22bbd5	-0.6356786
203	0x3fa34e06	1.2758186
204	0x3f11d696	0.5696806
205	0xbf00d797	-0.50328964
206	0xbf5657ce	-0.8372773
207	0x3eb67f10	0.35643816
208	0xbd078b1e	-0.033091657
209	0xbf3a7233	-0.72830504
210	0xbf2be5c8	-0.67147493
211	0xbdeb3068	-0.11483842
212	0xbe7d24b5	-0.24721034
213	0xbea4af0b	-0.32164797
214	0xbf871546	-1.0553367
215	0xbf42261f	-0.7583942
216	0xbe4e2aa3	-0.20133452
217	0x3d1ca6bd	0.03824495
218	0xbed1a4f8	-0.40946174
219	0x3ed09c71	0.40744355
220	0xbec9c52b	-0.3940824
221	0x3ef0cc26	0.47030753
222	0x3db5edd7	0.08883255
223	0x3f6c2c90	0.92255497
224	0xbf4bff1d	-0.79686147
225	0xbfd42847	-1.6574792
226	0xbd98c433	-0.07459297
227	0x3fe3a8c2	1.7785876
228	0xbebc87f5	-0.36822477
229	0x40011abe	2.0172572
230	0xbf85ba56	-1.044749
231	0xbf5c798a	-0.86122954
232	0x3eb59b4d	0.35470048
233	0x3eb54d5e	0.3541059
234	0x3f16cbea	0.589049
235	0x3ee9250d	0.4553608
236	0x3f10f43a	0.5662266
237	0x3ead66cd	0.33867493
238	0x3f4ed92b	0.8080012
239	0xbf255422	-0.645815
240	0xbed1e13a	-0.40992147
241	0xc06505da	-3.5784822
242	0xbfe32a16	-1.7747219
243	0xc023839b	-2.5549076
244	0x3e869d42	0.26291853
245	0xbf1cc8da	-0.61243975
246	0x3f6513af	0.8948316
247	0x3f282f12	0.65696824
248	0xbf2ebd40	-0.6825752
249	0xbf41c714	-0.75694394
250	0xbf1e8890	-0.6192713
251	0xbe17813f	-0.14795397
252	0x3f3536f7	0.70786995
253	0x3fa7fc72	1.3123915
254	0xbd227857	-0.039665546
255	0xbded922b	-0.11600145

fc2.weight f4 [128, 256]
0	0x3ec67d9b	0.38767704
1	0x3e6975c4	0.2279883
2	0xbe6b8fbe	-0.23004052
3	0x3eb15387	0.3463404
4	0x3b8f9dc3	0.0043828203
5	0xbf2ed8c4	-0.6829951
6	0xbf66c4db	-0.9014413
7	0x3e9809f5	0.29695097
8	0x3f4202c8	0.75785494
9	0xbdf97691	-0.12180818
10	0xbe8cb510	-0.2748189
11	0xbfa5dbc8	-1.2957697
12	0x3ec15f19	0.37767866
13	0xbeab408b	-0.3344768
14	0xbdce158b	-0.10062703
15	0xbf07a127	-0.52980274
16	0x3e8a53ae	0.27016968
17	0x3ea3db27	0.32003137
18	0x3d7fcfa5	0.062453885
19	0xbec4892d	-0.38385907
20	0x3e0e2030	0.13879466
21	0xbf442a63	-0.76627177
22	0x3eac9722	0.33709055
23	0x3e0347df	0.12820385
24	0x3e04ae5f	0.12957142
25	0x3e808072	0.25097996
26	0x3dc8e80e	0.09809886
27	0xbf40ba25	-0.75284034
28	0xbf600127	-0.8750176
29	0x3ee8ea53	0.45491275
30	0x3e907437	0.28213665
31	0xbf252742	-0.6451303
32	0xbe50c29b	-0.20386736
33	0x3e9e5b51	0.30929044
34	0x3de8627c	0.113469094
35	0x3eac06b9	0.3359888
36	0x3ea4d71e	0.3219537
37	0x3ed09586	0.40739077
38	0xbebee5d5	-0.37284723
39	0xbe62edb2	-0.22160986
40	0x3f09ba8e	0.53800285
41	0xbf1a6979	-0.6031719
42	0xbebd7b98	-0.37008357
43	0x3ef7f403	0.48428354
44	0x3dcc10f9	0.09964175
45	0xbf0141ec	-0.50491214
46	0x3ec2d2fd	0.38051596
47	0xbe82b477	-0.2552831
48	0x3e4600e8	0.19336283
49	0x3e5b326a	0.2140595
50	0x3d96f9df	0.07371878
51	0x3e4543b7	0.19264112
52	0x3e46bfc1	0.19409086
53	0xbea83e7c	-0.32860172
54	0xbebd6012	-0.36987358
55	0x3e53a477	0.20668207
56	0x3e8fa7b4	0.28057635
57	0xbe2abcc5	-0.16673572
58	0xbe53719e	-0.2064881
59	0x3d0ce07f	0.034393784
60	0x3e1806c8	0.14846337
61	0x3e0051d0	0.12531209
62	0xbf0b0050	-0.5429735
63	0x3e22c79a	0.15896454
64	0x3ec1d1be	0.37855333
65	0x3d75c79f	0.060004827
66	0x3da1daef	0.079030864
67	0x3e46de3d	0.19420715
68	0x3dfeb010	0.12435925
69	0x3f0b9f0c	0.5453956
70	0xbe90860f	-0.2822728
71	0xbb3c032e	-0.0028688419
72	0x3ec71d64	0.3888961
73	0x3dd916e2	0.10600068
74	0xbeb3b930	-0.35102224
75	0x3e871c7d	0.26388922
76	0x3dca46d6	0.09876792
77	0xbe2cb08c	-0.16864222
78	0x3e9cee3a	0.30650502
79	0x3e1c603f	0.1527109
80	0xbe860d62	-0.26182085
81	0xbe97673e	-0.29570955
82	0x3e226a47	0.15860854
83	0x3de19b82	0.11015989
84	0xbdfcabb7	-0.123374395
85	0x3ed5af3e	0.41735262
86	0x3e6474e9	0.22310223
87	0xbef3101f	-0.47473237
88	0xbf46e404	-0.77691674
89	0xbeb41092	-0.35168892
90	0xbe89adab	-0.2689031
91	0xbe2dc81b	-0.16970865
92	0x3eed2fbb	0.46325478
93	0x3d5ec670	0.054388463
94	0xbeb25bb9	-0.34835604
95	0x3eeb8ea2	0.46007258
96	0x3e097990	0.13425279
97	0xbde89255	-0.113560356
98	0xbe94dbe3	-0.2907401
99	0xbcf47468	-0.029840663
100	0x3ed0e6fe	0.40801233
101	0x3cd531b4	0.026024677
102	0xbf1fc7f7	-0.624145
103	0x3ead2dae	0.33823913
104	0x3eabc360	0.33547497
105	0xbcdde595	-0.027087012
106	0xbed505aa	-0.41605884
107	0x3e9cb890	0.3060956
108	0xbf214b18	-0.6300521
109	0xbd164541	-0.03668714
110	0x3db9b3e1	0.09067512
111	0x3ea281cd	0.31739655
112	0xbe83e9b4	-0.2576424
113	0x3dbf99ab	0.09355482
114	0xbe96ca6c	-0.2945131
115	0xbe516a30	-0.20450664
116	0x3ef05f57	0.4694774
117	0x3dd25ef6	0.102720186
118	0xbf14a559	-0.580648
119	0xbe034c12	-0.12821987
120	0xbe88fc67	-0.26755068
121	0x3e93ea1c	0.2888955
122	0xbbbbd2ff	-0.00573194
123	0xbebdf2b7	-0.3709924
124	0x3e2cf487	0.16890155
125	0xbe12887f	-0.14309882
126	0xbedc7be2	-0.43063265
127	0xbe1c2683	-0.15249066
128	0xbf8ab31f	-1.0835913
129	0x3df698b2	0.12040843
130	0x3db3ac46	0.08773093
131	0xbe0551b0	-0.13019443
132	0x3eb4556b	0.3522142
133	0xbe34a57f	-0.17641257
134	0x3e5eec62	0.2176986
135	0x3e25b80f	0.16183494
136	0x3d6223ec	0.05521004
137	0xbd853612	-0.06504454
138	0xbf81ec50	-1.0150242
139	0x3ee7986d	0.4523348
140	0x3d01ffbf	0.03173804
141	0xbee45735	-0.44597784
142	0x3f2e42c4	0.68070626
143	0xbf90ecc7	-1.1322259
144	0xbe9f833a	-0.31154805
145	0xbef9785e	-0.48724645
146	0xbfcad143	-1.5845112
147	0x3f07f48f	0.5310754
148	0x3d0464f6	0.032322846
149	0x3e200553	0.15627031
150	0xbf04aaee	-0.5182332
151	0xbd92054e	-0.07129918
152	0x3dfa1105	0.122102775
153	0x3ea3428b	0.31886706
154	0x3cd7af4b	0.026328703
155	0xbe827636	-0.25480813
156	0x3e3b964c	0.18319052
157	0xbf720fc0	-0.9455528
158	0x3f038989	0.51381737
159	0xbf9bcf9b	-1.2172731
160	0x3edf151d	0.43570796
161	0xbe861252	-0.26185852
162	0xbe8e5ed1	-0.27806714
163	0xbd56ea94	-0.052469805
164	0x3e3f8b6d	0.1870553
165	0x3ea01850	0.3126855
166	0xbfaff2bf	-1.3745955
167	0x3f2f956e	0.68587387
168	0xbfb85545	-1.4401022
169	0x3ec4d7fb	0.3844603
170	0x3d3d6b62	0.046244986
171	0xbd16a616	-0.036779486
172	0xbf5b6add	-0.85709935
173	0xbec36cbb	-0.38168892
174	0xbf19827d	-0.59964734
175	0xbe47d0e6	-0.19513282
176	0x3e995ccf	0.2995362
177	0x3ec4f709	0.38469723
178	0xbdcce505	-0.100046195
179	0x3f12c5f1	0.57333285
180	0x3e84275d	0.25811282
181	0xbf3a4585	-0.7276233
182	0xbe83d99e	-0.25751966
183	0xbc220c7e	-0.009890674
184	0x3e68da79	0.2273959
185	0x3d212648	0.03934315
186	0xbe79e98b	-0.24405496
187	0xbdd9ea0e	-0.106403455
188	0xbeb60d89	-0.35557202
189	0xbf8f0d39	-1.117591
190	0x3da79d5d	0.081843115
191	0x3df6b8f4	0.12046996
192	0xbec52c04	-0.38510144
193	0xbf0bb332	-0.54570305
194	0x3dc2b773	0.095076464
195	0xbe81eec9	-0.2537749
196	0x3dca5462	0.09879376
197	0x3ef2804a	0.47363502
198	0x3dba5450	0.090981126
199	0xbea48a1a	-0.32136613
200	0x3f260036	0.6484407
201	0x3dd07020	0.10177636
202	0x3f4fc719	0.81163174
203	0xbe06f069	-0.13177647
204	0x3e128e9a	0.1431221
205	0x3e9b013c	0.3027438
206	0xbd38fa61	-0.045160655
207	0xbba7b53c	-0.0051180404
208	0x3d16a821	0.036781434
209	0xbe537a2c	-0.20652074
210	0x3e9e3d08	0.30905938
211	0x3e65f44b	0.22456472
212	0x3e2791ba	0.16364184
213	0x3e566c30	0.20939708
214	0x3e92a579	0.2864187
215	0x3e5ff634	0.21871263
216	0x3ecdc8c7	0.40192243
217	0xbee44902	-0.4458695
218	0xbf2946a2	-0.661234
219	0xbdb5af1b	-0.08871289
220	0x3e08b6f2	0.13351038
221	0xbee9067e	-0.45512766
222	0x3f06404e	0.5244187
223	0x3f1c54cb	0.61066884
224	0x3eb80242	0.35939223
225	0x3e4a5e3a	0.19762507
226	0xbec422bc	-0.3830775
227	0xbd098d5f	-0.033582088
228	0xbf89ff97	-1.0781125
229	0x3cf52133	0.029923057
230	0xbd4e4b93	-0.050365042
231	0x3e27324c	0.1632778
232	0xbf210916	-0.6290449
233	0xbef9be72	-0.4877811
234	0xbf20eb09	-0.62858635
235	0x3ecef37d	0.40420142
236	0x3edbca2b	0.4292768
237	0xbe4017f3	-0.18759136
238	0x3e5c1ae4	0.21494633
239	0xbec15473	-0.37759742
240	0xbf2d1933	-0.67616576
241	0xbfae39a4	-1.361134
242	0xbf2be3e3	-0.671446
243	0xbe1726fc	-0.14760965
244	0x3e592da9	0.21208824
245	0xbf06a32d	-0.52592736
246	0x3f0ded01	0.55439764
247	0x3ef42276	0.47682542
248	0x3eb2f757	0.3495433
249	0x3e864b05	0.2622911
250	0x3d99e64c	0.07514629
251	0xbe233052	-0.15936401
252	0x3dd3a0e6	0.10333423
253	0x3e908545	0.28226677
254	0x3c5880f0	0.013214335
255	0x3daa5ca9	0.08318455

fc2.bias f4 [128]
0	0xc020d8b6	-2.513227
1	0x3ebdfd85	0.37107483
2	0x4017728c	2.3663664
3	0xbf02e028	-0.51123285
4	0x3dadbf12	0.084837094
5	0xbe1156bb	-0.14193241
6	0xbf804a8b	-1.0022749
7	0xbf963a14	-1.1736474
8	0x3f3c9454	0.7366383
9	0x405fd4e5	3.497369
10	0xbf9f053f	-1.2423476
11	0x40a59226	5.1740904
12	0xbf4b7d0d	-0.7948769
13	0xbfafd9eb	-1.3738378
14	0x3ecb33ff	0.39688107
15	0xbfac50ad	-1.346212
16	0xbfb68173	-1.4258255
17	0x3febb141	1.8413469
18	0xc013a8d6	-2.30718
19	0xc0234688	-2.55118
20	0xbf5dc922	-0.8663503
21	0xbf678a29	-0.9044519
22	0xbf5eae55	-0.8698476
23	0x3e6ca740	0.23110676
24	0xbf45ad0c	-0.77217174
25	0xbf8656c4	-1.0495229
26	0x3f1940e0	0.59864616
27	0xbee783bc	-0.45217693
28	0x3fb0eef8	1.3822927
29	0xc02e8f71	-2.727505
30	0xbecb3ab0	-0.39693213
31	0xbfd41a60	-1.6570549
32	0x3eb527cc	0.35381925
33	0xbf1aa4ed	-0.60407907
34	0xc011756c	-2.2727919
35	0xbfb7286c	-1.4309211
36	0x401e876f	2.4770162
37	0x3fca2daf	1.5795192
38	0xbd95248e	-0.07282363
39	0xc075bc82	-3.8396306
40	0x3f179332	0.5920898
41	0xbe241b23	-0.16025977
42	0xbd0103b2	-0.031497665
43	0xbf39685b	-0.7242486
44	0x3f8a7717	1.0817593
45	0xbedda968	-0.4329331
46	0xbfb540c4	-1.416039
47	0xbddbfe34	-0.10741845
48	0xc0186b24	-2.3815393
49	0x3e265b1c	0.16245693
50	0xbbc472ed	-0.0059951455
51	0x40790bdb	3.8913486
52	0xbff9cc8b	-1.9515547
53	0xbe2e0f99	-0.16998138
54	0xbf77eaa1	-0.9684239
55	0xc080faac	-4.0305996
56	0xc05a4da6	-3.4109893
57	0xbf0bea5b	-0.54654473
58	0x3ff2b092	1.8960135
59	0xc06ecfe9	-3.7314398
60	0xbc596443	-0.013268533
61	0x3f904b89	1.1273052
62	0x3f678ba4	0.9044745
63	0x400c4984	2.191987
64	0xbf4e7688	-0.80649614
65	0x3d95e456	0.07318942
66	0xbf475dad	-0.7787731
67	0x4083ca95	4.1184793
68	0x3f2d4cb8	0.6769519
69	0xbf03cd30	-0.51484966
70	0xbf070fdf	-0.5275859
71	0xbf58ea8d	-0.84732896
72	0x3fc9c053	1.5761818
73	0xbec0cad3	-0.37654743
74	0xbf1942f2	-0.59867775
75	0x3f700aa6	0.9376625
76	0xbe255371	-0.16145112
77	0xbf933e94	-1.1503472
78	0xbfaecfb9	-1.3657142
79	0xbfa29c8d	-1.2704026
80	0x400a2a73	2.158841
81	0x40025100	2.0361938
82	0xbfa45dc4	-1.2841115
83	0x4017bd10	2.3709145
84	0x3fb2496c	1.3928657
85	0x40059c08	2.0876484
86	0xc036aea6	-2.8544097
87	0xbd83745b	-0.064186774
88	0xc04100aa	-3.0156655
89	0x40062102	2.0957646
90	0xbf3ac184	-0.7295153
91	0x3ed8c305	0.42336288
92	0xbf492799	-0.78576046
93	0x3d82169d	0.063519694
94	0x3f2f475e	0.6846827
95	0xbf8747a6	-1.056874
96	0xc0468223	-3.101693
97	0xbf9752d3	-1.1822151
98	0xbd78ff9b	-0.06079064
99	0x407f0de6	3.9852233
100	0x3f70910d	0.9397133
101	0xbedbd3ba	-0.42934972
102	0xbfdfd8c4	-1.7488027
103	0x3fb3fc28	1.4061327
104	0x3f7c8025	0.98633033
105	0x3fc1cf67	1.5141419
106	0x3ff0bb08	1.8807077
107	0x40436ce3	3.053521
108	0xbf3a05a6	-0.7266487
109	0x3ecdc89e	0.4019212
110	0x3f19c6d1	0.60068995
111	0xbe31e84b	-0.17373769
112	0xbe795530	-0.24348903
113	0xbe651ada	-0.22373524
114	0xbfe4fc46	-1.7889488
115	0x3fffff7f	1.9999846
116	0x3f9bfc02	1.2186282
117	0x3f9205d2	1.1408026
118	0xc008f801	-2.140137
119	0xbfa6b12b	-1.3022817
120	0xbe2ce176	-0.16882882
121	0xbea82787	-0.32842657
122	0xbf1638f9	-0.58680683
123	0x406f3a57	3.7379358
124	0x3f955a19	1.1668121
125	0xbf7e4205	-0.9931949
126	0xbf9a8e9c	-1.2074771
127	0xbdb6ddf7	-0.08929055

fc3.weight f4 [11, 128]
0	0xbe8cdc48	-0.2751181
1	0xbe6df1d8	-0.23236787
2	0xbebe7d77	-0.37205097
3	0xbbe4b377	-0.0069794017
4	0xbea75382	-0.326809
5	0xbe62a3e0	-0.22132826
6	0xbeea085a	-0.45709497
7	0xbeb2f222	-0.34950358
8	0xbe94dbdf	-0.29073998
9	0xbe2ce2de	-0.16883418
10	0xbda388ba	-0.07985063
11	0xbe89b837	-0.26898357
12	0x3c885953	0.016644156
13	0xbe150a57	-0.14554726
14	0xbe0570a1	-0.13031246
15	0xbd93c65b	-0.07215568
16	0xbd8be061	-0.06829906
17	0xbdd837ed	-0.10557542
18	0xbe4ed136	-0.20196995
19	0xbe11d826	-0.1424261
20	0xbe87814f	-0.26465842
21	0xbf0078c5	-0.5018428
22	0xbec6fe19	-0.38865736
23	0xbea19097	-0.31555626
24	0xbe2a2073	-0.16613941
25	0xbe6f6cd7	-0.23381363
26	0xbe832876	-0.25616807
27	0xbdaab336	-0.08334963
28	0xbdcccd2f	-0.10000073
29	0x3d38e412	0.04513938
30	0xbf100ce1	-0.5626965
31	0xbf667021	-0.90014845
32	0xbec09169	-0.3761094
33	0xbe14b67e	-0.1452274
34	0xbe348b0c	-0.17631167
35	0xbe4f313e	-0.20233628
36	0xbdece5e3	-0.11567285
37	0xbe65d6a4	-0.2244516
38	0xbe173f83	-0.14770322
39	0xb9360a7b	-0.00017360777
40	0x3bda95bb	0.0066706813
41	0xbeffa0b6	-0.499273
42	0xbe95037f	-0.2910423
43	0xbebc8834	-0.36822665
44	0xbe949827	-0.29022333
45	0xbe63763a	-0.22213069
46	0xbe43d02c	-0.1912238
47	0xbdabd01c	-0.08389303
48	0xbec0f49c	-0.37686622
49	0xbe923e06	-0.28562945
50	0xbf55fcdc	-0.8358896
51	0xbe717c18	-0.23582494
52	0xbd99eb5f	-0.075155966
53	0xbea82ad1	-0.32845166
54	0xbc45414a	-0.012039492
55	0xbc30c2ab	-0.0107886
56	0xbead217b	-0.33814606
57	0xbe680060	-0.22656393
58	0xbdf58b06	-0.11989407
59	0xbda005e9	-0.07813627
60	0xbd9f3f50	-0.07775748
61	0xbe90e5f8	-0.28300452
62	0xbe81a116	-0.2531821
63	0xbe1660a7	-0.14685307
64	0xbdb9708e	-0.09054671
65	0xbeecc04a	-0.46240455
66	0xbe2eba61	-0.17063285
67	0xbe7c8f1f	-0.24663971
68	0xbd9db99b	-0.07701417
69	0xbe48cead	-0.1961009
70	0xbea368a7	-0.3191578
71	0xbd476c97	-0.048687544
72	0xbea02bd3	-0.31283435
73	0xbf30b3ba	-0.6902424
74	0xbe18b4d7	-0.14912735
75	0xbdad55b7	-0.084636144
76	0xbe6b9293	-0.23005132
77	0xbe7c2406	-0.24623117
78	0xbe4aeaa8	-0.19816077
79	0x3c8286d2	0.015933428
80	0xbe802ed6	-0.25035733
81	0xbe0aef3a	-0.1356782
82	0xbf0af9f4	-0.5428765
83	0xbdefbdbb	-0.1170611
84	0xbeb03698	-0.34416652
85	0xbe25ffba	-0.16210833
86	0xbdc5911f	-0.0964682
87	0xbd6d77bc	-0.057975516
88	0xbdd0db9f	-0.101981394
89	0xbe6d8b20	-0.23197603
90	0xbe123bdc	-0.14280647
91	0xbe870306	-0.26369494
92	0xbe486852	-0.19571045
93	0xbdf33f5e	-0.11877321
94	0xbdd4fa35	-0.10399286
95	0xbf16a3d7	-0.5884375
96	0xbe06ccc2	-0.13164046
97	0xbe053808	-0.13009655
98	0xbdeb2fc1	-0.11483718
99	0xbe28b162	-0.16473916
100	0xbe0bda18	-0.13657415
101	0xbe11fa25	-0.14255579
102	0xbda4f9b1	-0.08055437
103	0xbe03e65e	-0.12880847
104	0xbecb3832	-0.3969131
105	0xbe95151b	-0.29117665
106	0xbe1eb230	-0.1549766
107	0xbe429916	-0.1900371
108	0xbea31173	-0.3184925
109	0xbd6415b6	-0.055684768
110	0xbe61ef07	-0.22063838
111	0xbe77acba	-0.24186984
112	0x3cc38f44	0.023872025
113	0xbf0af1d7	-0.5427527
114	0xbe240e03	-0.1602097
115	0xbdc263f2	-0.09491719
116	0xbda73e4c	-0.08166179
117	0xbdfa70aa	-0.1222852
118	0xbff58744	-1.9181905
119	0xbd4bf13f	-0.049790617
120	0xbe33c7cf	-0.1755669
121	0xbeb9b6a7	-0.36272165
122	0xbe9cf230	-0.30653524
123	0xbe759e7c	-0.23986238
124	0xbe06521f	-0.13117264
125	0xbf063392	-0.5242244
126	0xbd3b6a09	-0.04575542
127	0xbe2a316f	-0.1662042
128	0xbe65e2cc	-0.22449797
129	0xbd4be148	-0.04977539
130	0xbe7827b3	-0.24233894
131	0xbe36b0c1	-0.17840864
132	0xbeaf5aa2	-0.34248835
133	0xbe15184b	-0.14560048
134	0xbec5097e	-0.38483804
135	0xbeabb2be	-0.33534807
136	0xbdd7b401	-0.1053238
137	0xbba6da03	-0.005091907
138	0xbc6936a1	-0.014234216
139	0x3d5104dc	0.051030025
140	0xbe154a98	-0.14579237
141	0xbe0d9297	-0.13825451
142	0xbd9dd4c9	-0.07706601
143	0xbdd0de72	-0.10198678
144	0xbe098396	-0.13429102
145	0xbd9dbc09	-0.077018805
146	0xbe3b31a7	-0.1828066
147	0xbe3377ea	-0.17526212
148	0xbe3f5eb8	-0.18688476
149	0xbf29bd66	-0.66304624
150	0xbef31bdd	-0.47482195
151	0xbe149c9c	-0.14512867
152	0xbe67f46a	-0.2265183
153	0xbe64da12	-0.22348812
154	0xbe23492c	-0.15945882
155	0xbe214dec	-0.15752381
156	0xbe3dbc6b	-0.18528907
157	0xbd12defd	-0.03585719
158	0xbef9986a	-0.48749095
159	0xbf2adc9d	-0.6674288
160	0xbdf92324	-0.12164906
161	0xbe663ac8	-0.22483361
162	0xbe958be7	-0.292083
163	0xbe71ae02	-0.23601535
164	0xbddb5cb2	-0.107110396
165	0xbe86d475	-0.26333967
166	0xbe8931b7	-0.26795742
167	0xbe014fc5	-0.12628086
168	0xbe24e0c8	-0.16101372
169	0xbeb0be8f	-0.34520385
170	0xbf1c04ff	-0.60945123
171	0xbe68f428	-0.22749388
172	0xbe97aaa3	-0.29622373
173	0xbe8bd25d	-0.27308932
174	0xbe236350	-0.15955853
175	0xbe21704b	-0.15765493
176	0xbebc6a2f	-0.36799762
177	0xbdae4d7f	-0.08510875
178	0xbf1650ff	-0.5871734
179	0xbc14c0df	-0.009079187
180	0xbdb98fb8	-0.09060615
181	0xbe05aec8	-0.13054955
182	0xbe88a516	-0.2668845
183	0xbddb2071	-0.10699547
184	0xbe9002ba	-0.2812708
185	0xbe67f78d	-0.22653027
186	0xbe0b1e48	-0.1358577
187	0xbdfb070a	-0.12257202
188	0xbea7c4e7	-0.32767412
189	0xbe4cb360	-0.19990301
190	0xbd41277d	-0.0471568
191	0xbe148060	-0.14502096
192	0xbe82cbe4	-0.2554618
193	0xbedb42c1	-0.42824367
194	0xbea8f41f	-0.3299875
195	0xbd03a443	-0.032139074
196	0xbe1491e0	-0.14508772
197	0xbe140c58	-0.14457834
198	0xbd7a2afa	-0.061076142
199	0xbdeb35e3	-0.114848875
200	0xbe33d205	-0.17560585
201	0xbf296144	-0.6616404
202	0xbd1d4dd3	-0.038404297
203	0xbb8ffb36	-0.0043939603
204	0xbe4a359c	-0.19747013
205	0xbed1b0ba	-0.40955144
206	0xbecb9705	-0.39763656
207	0x3c269345	0.010166948
208	0xbddb9b7a	-0.10723014
209	0xbe13a0a0	-0.14416742
210	0xbeb68045	-0.35644737
211	0xbde56f09	-0.11202819
212	0xbeecf06f	-0.46277186
213	0xbe090896	-0.13382182
214	0xbe652d75	-0.22380622
215	0x3cb3fb4b	0.021970412
216	0xbdcb7c8e	-0.09935866
217	0xbe3d8de3	-0.18511157
218	0xbe8c4dac	-0.2740301
219	0xbe0e25bc	-0.13881582
220	0xbe9661f6	-0.29371613
221	0xbdabcac8	-0.08388287
222	0xbcc67771	-0.024226876
223	0xbecb01f6	-0.39649934
224	0xbe14c810	-0.14529443
225	0xbeb3a8b5	-0.3508965
226	0xbd29a09f	-0.041412946
227	0x3cc9697a	0.024586428
228	0xbe0ae3b6	-0.13563427
229	0xbe0b3cdf	-0.13597439
230	0xbe1c4e98	-0.15264356
231	0xbe35f2a5	-0.17768343
232	0xbeab5bb1	-0.33468392
233	0xbddd830f	-0.10816013
234	0xbe0134c6	-0.12617788
235	0xbbcea6d2	-0.0063065076
236	0xbe86820b	-0.2627109
237	0xbe41666e	-0.1888673
238	0xbe27dc86	-0.16392717
239	0xbe74bae4	-0.23899418
240	0xbc81ed75	-0.015860299
241	0xbdd7e8a5	-0.1054242
242	0xbe539559	-0.2066244
243	0xbdbca48c	-0.09211072
244	0xbda305ec	-0.07960114
245	0xbdfd11b0	-0.12356889
246	0xc00ffddc	-2.2498693
247	0xbe785870	-0.24252486
248	0xbe850d2d	-0.25986615
249	0xbeb9f1f9	-0.36317423
250	0xbeb79f01	-0.35863498
251	0x3d56077e	0.05225324
252	0xbe1f9a8c	-0.15586299
253	0xbf7538a8	-0.95789576
254	0xbe4e19f7	-0.20127092
255	0xbecdfb3f	-0.40230748

fc3.bias f4 [11]
0	0x3ed086fe	0.4072799
1	0x3fb44000	1.4082031
2	0xbf2ca9ef	-0.674468
3	0x3e9fc082	0.3120156
4	0xbf3d8635	-0.7403291
5	0xbf70e34d	-0.94096833
6	0x3e686a16	0.22696719
7	0xbf4ba8d2	-0.79554474
8	0x3dddd95a	0.10832472
9	0xbe9aaa8e	-0.30208248
10	0xbf93e9e7	-1.1555756
