reconhecimento-desenho-2-0/models/modelo_pytorch-03.pt (torch, 946281 bytes, 6 tensors)

fc1.weight f4 [256, 784]
000000 3b 23 08 3d 60 69 90 3c 74 ce 84 3c 76 93 f1 3c
       0.033236723 0.017628372 0.016211726 0.02948926
000010 c2 20 88 3c 66 4a b4 3c 6c aa d4 3c 58 a0 d9 3c
       0.016617183 0.022008132 0.02596017 0.026565716
000020 10 6a 21 3c 80 3d 7c ba 4a 38 8e 3c 12 b3 cd 3c
       0.009851947 -0.00096222013 0.017360825 0.025109801
000030 66 e8 77 bc e2 10 d6 3c be 0f 89 bc b8 eb 49 3c
       -0.015131092 0.026131097 -0.01673114 0.012324266
000040 b0 2b 3e 3b a0 f7 66 bc e3 9f e7 bc 20 61 5d bb
       0.002901774 -0.014097124 -0.028274482 -0.0033779815
000050 26 f8 f5 3c 5a e1 ab 3c 4a 21 cb 3c 28 d1 9e 3c
       0.030025553 0.02098148 0.024796147 0.019386843
000060 84 8a 25 3c aa 8b 0f bc 76 f2 a8 3c 37 06 0d bd
       0.0101038255 -0.008761326 0.020623427 -0.034429755
000070 a0 c9 eb 3b 3c b8 41 3e b8 b2 3f bf 21 15 a6 3d
       0.0071956664 0.18917936 -0.7488208 0.08109499
000080 68 8e 22 3e 5b c5 9f be 9d 65 e0 bd 97 29 1e 3e
       0.15874636 -0.31205258 -0.10956881 0.15445553
000090 bf 6c 0a 3e 14 35 cc bd 3f 7a c7 bd 58 f9 60 3e
       0.13518046 -0.09971061 -0.097401135 0.21970117
0000a0 8d 15 e7 bd e3 65 46 bd 6f 47 0b be 37 69 39 be
       -0.11283407 -0.04843701 -0.13601469 -0.18106543
0000b0 07 ef e9 be 26 27 58 bf ee b8 74 be 15 ea 8b be
       -0.45690176 -0.84434736 -0.2389867 -0.27327028
0000c0 f5 a0 3a be b5 e1 e4 3c b7 37 e5 3c 96 36 b2 be
       -0.18225463 0.027939657 0.027980668 -0.3480727
0000d0 ac cb 46 be b7 f1 03 3c 28 ee 54 3f 05 53 10 bd
       -0.19413632 0.008053235 0.831759 -0.035235424
0000e0 65 98 07 3d e3 f1 5f be ab 4e c3 be d9 34 5e 3e
       0.03310432 -0.21869616 -0.38145956 0.21699847
0000f0 21 16 8e be 7e 65 16 bf 86 0c 88 be 74 20 97 3e
       -0.27751258 -0.58748615 -0.26572055 0.29516947
000100 c6 d4 15 bd f5 81 e2 bd b7 99 5b 3c a7 78 a0 bd
       -0.03657987 -0.110599436 0.013403348 -0.078355126
000110 b7 8d 58 bc d8 21 11 bd 8c ea 31 3d 5f 04 f1 bd
       -0.013217381 -0.035432667 0.043436572 -0.11768412
000120 7c 59 ac be db 2e e7 be ba b5 ba be ba 3d 78 be
       -0.3366202 -0.45152935 -0.3646677 -0.24242297
000130 60 ff 41 be 10 d8 1b be 23 0c ab 3d 53 08 76 bb
       -0.18945074 -0.1521914 0.08351924 -0.0037541583
000140 38 3d 25 3e 56 3b 99 3d 62 22 b4 3e 18 c6 a0 3c
       0.16136634 0.074820206 0.35182482 0.019625708
000150 5a 92 d5 bc cc 7a a2 bd 49 53 a3 be 8b 3f c5 bd
       -0.026070762 -0.07933578 -0.3189948 -0.096312605
000160 ad d3 00 be 9e 4f e1 be 62 f7 f5 be f1 46 bc bd
       -0.12580748 -0.44006056 -0.480403 -0.091932185
000170 93 1b 81 3c 88 45 90 be 3d 98 da bb 23 2e 27 bc
       0.015760219 -0.28178048 -0.0066709802 -0.010203871
000180 d8 51 07 bd 9c 9d 4d 3b 8e aa 94 be 2f a8 00 be
       -0.033037037 0.003137446 -0.29036373 -0.12564157
000190 73 9b 75 be 8d 67 f2 bd 51 d8 24 be d1 b2 7a bd
       -0.2398508 -0.11836157 -0.16098143 -0.06120569
0001a0 b4 85 0c be f9 44 64 be 35 c9 a7 bd 6a 7b 1d be
       -0.13722879 -0.22291936 -0.08192674 -0.1537911
0001b0 86 1f 72 bd 98 dc 80 3e f3 9d 9c 3e da 86 bc bc
       -0.059112094 0.251683 0.30589256 -0.023013521
0001c0 90 1e 46 3b c4 75 c5 bd 44 f8 2e bf 16 c4 af be
       0.003023062 -0.09641603 -0.68347573 -0.3432929
0001d0 70 d3 6b be c6 1d 1d bf 27 0d 91 bd 7d 1f 13 be
       -0.23029876 -0.61373556 -0.07082587 -0.1436748
0001e0 8b c9 52 3e f1 c2 93 bd 37 4e e3 bd 62 11 41 bd
       0.20584695 -0.072149165 -0.11098903 -0.04713572
0001f0 e7 e6 02 be d5 0c 3e be f0 fd 2d 3d ac de 72 3c
       -0.12783395 -0.18559583 0.0424785 0.014823597
000200 f1 1c b2 be 7d 20 2a be f3 eb 51 be a5 32 a7 be
       -0.34787706 -0.16613956 -0.20500164 -0.32655826
000210 5b 71 6d bd 54 40 80 be 3d 3c 2c 3d 69 bc 6e 3d
       -0.057969432 -0.25049078 0.042049635 0.05828515
000220 80 99 27 be a7 56 27 be c5 f3 ee be d6 39 09 bd
       -0.1636715 -0.16341649 -0.46670356 -0.033502422
000230 64 02 9d bb 01 ee 7d 3e 38 21 7a bd 80 7a 9a 3c
       -0.0047915448 0.24797823 -0.061066836 0.01885724
000240 f5 22 02 be 65 e9 a8 be f3 de 0d be 32 44 0d be
       -0.12708648 -0.32990566 -0.1385458 -0.13795546
000250 f8 e0 57 3d 92 68 f5 3c 9d 7b 27 be f0 6d a1 be
       0.05270478 0.02995709 -0.16355748 -0.31529188
000260 24 1d cc 3b 8c 57 1c bd 47 71 63 3d ee f0 c4 3d
       0.00622906 -0.03816943 0.05552795 0.09616266
000270 a4 99 9e be 8c 15 92 3d b0 e7 47 be 82 8b 5f be
       -0.30976593 0.07133016 -0.19521976 -0.21830562
000280 5d 3c 28 bd 72 13 a2 be 6e b3 d2 bd d9 04 8b be
       -0.041073192 -0.3165546 -0.1028813 -0.27152136
000290 28 d6 67 3d 45 a9 82 3e 6e 4d 15 3f 63 a0 c4 bc
       0.05660072 0.25519767 0.58321273 -0.02400226
0002a0 a0 23 83 3a 6c 26 cf 3d 9c 39 10 3e 1e 06 2d 3e
       0.0010005124 0.1011475 0.14084476 0.16896865
0002b0 f2 2f 8a 3b 95 db f0 bc 89 ef ae bd 53 c0 5c be
       0.0042171413 -0.02940158 -0.085417815 -0.21557741
0002c0 d1 1b 5f 3d 15 4b 87 bd 3e 99 76 be 07 3a 03 be
       0.054469887 -0.06606118 -0.24081895 -0.12815104
0002d0 d1 26 87 3d 90 dc eb 3d 2d 60 37 bd a0 c7 9b bd
       0.065992005 0.11516678 -0.044769455 -0.07606435
0002e0 ed 9d 37 be 7b 38 19 be 29 d0 a1 be 06 33 b6 be
       -0.17931338 -0.14962952 -0.31604126 -0.35585803
0002f0 1c 4e 31 be ef e0 a7 bd 71 7a a7 3c d6 4f 2a be
       -0.17314953 -0.081971996 0.020444127 -0.16632017
000300 4b 6e ea bb 51 57 dc 3e ab 7e 28 3e 7f 3c 0c bd
       -0.007154261 0.43035367 0.1645457 -0.03423738
000310 5c e6 05 bd b0 b6 f0 be 03 94 6a 3e 31 bd 51 3d
       -0.03269039 -0.4701438 0.22908024 0.051205818
000320 57 68 63 3d 57 47 57 be 36 20 31 be 12 5b b4 be
       0.055519428 -0.21023308 -0.17297444 -0.3522573
000330 68 05 a2 be 2e 0a 33 be 28 39 31 be 8f 79 87 3c
       -0.3164475 -0.17484352 -0.1730696 0.016537456
000340 58 a0 ba 3d 86 89 99 bd 17 6c 7b 3d 82 9d c5 3d
       0.091126144 -0.07496934 0.06138238 0.09649183
000350 7c 54 fd 3c 4c 3d fb bc d7 ed bf bd 48 d1 3d be
       0.030924074 -0.030668877 -0.09371536 -0.18536866
000360 17 9a 1d be c5 68 44 3d 62 7e b4 bd 4b f2 29 be
       -0.15390812 0.04795148 -0.08813168 -0.16596334
000370 c4 1d 26 be c5 63 45 3e fa 63 0e 3e 72 3d b4 3c
       -0.16222292 0.1927634 0.13905326 0.022001956
000380 8c 37 dd bc 6d 34 83 be 37 68 e9 bc 5b 29 38 3d
       -0.027004026 -0.25625935 -0.028492076 0.044961315
000390 0d 43 8a be 31 8d 84 be 8c f0 c0 bd 53 fa 39 be
       -0.2700428 -0.2588897 -0.09420881 -0.18161897
0003a0 94 95 ae bd 17 1c 85 bd a5 f8 a9 3d f5 98 ad 3d
       -0.085246235 -0.06499498 0.08299378 0.0847644
0003b0 94 c9 d5 3d 60 c3 15 3b e6 9e 45 3e 80 f5 b1 bd
       0.104388386 0.0022852048 0.19298896 -0.086894035
0003c0 05 1c d6 bd fe f0 95 bd cb 50 eb 3d 86 71 ee bd
       -0.10454563 -0.07321356 0.114900194 -0.116427466
0003d0 19 64 91 bd ab a5 af be 01 6c 48 be 6d 22 25 be
       -0.0709917 -0.34306082 -0.1957245 -0.16126414
0003e0 17 00 d6 bd f4 ab 36 be 2d 9b 32 be 78 d0 d6 3b
       -0.10449236 -0.17839032 -0.17442007 0.006555613
0003f0 52 b7 89 3c 5d ef 67 3e 08 b7 67 bd 19 25 f4 3d
       0.016811047 0.22649904 -0.056571037 0.11921138

fc1.bias f4 [256]
000000 e9 4a 7f bf 98 bc 85 3e 3d 44 88 bf 8d 74 a7 3e
       -0.9972368 0.26120448 -1.0645825 0.3270611
000010 54 65 86 be c0 5d be bd aa 9e 6d bf 5d e9 d4 3d
       -0.26249182 -0.09295225 -0.9282023 0.10396073
000020 80 1b 0f be f1 14 30 3d b2 59 f3 3e 09 01 0b bf
       -0.13975334 0.04298872 0.4752937 -0.54298455
000030 d0 6a 19 bf 06 a4 18 bf df 94 b1 ba 56 03 0c 3e
       -0.5992861 -0.5962528 -0.0013548395 0.13673148
000040 d9 30 08 3d dc ed 28 bf f7 30 0b 3e cc 62 36 3f
       0.03324971 -0.65987945 0.13592897 0.712445
000050 0e 86 96 3e 81 67 0c 3e 41 64 c4 3e cc 4b 78 3f
       0.2939915 0.13711359 0.38357738 0.96990657
000060 2f cd 8e bf c9 3b 89 3f d8 46 84 be b8 15 bc 3e
       -1.1156367 1.072137 -0.258353 0.3673532
000070 33 ff 87 3d 8a 47 a5 be 41 4e ca be 17 0c b4 be
       0.06640472 -0.32281142 -0.39512828 -0.35165474
000080 b3 e8 ac 3d ff ce 3c be 48 9b 66 bf 5d 27 b0 be
       0.08442821 -0.18438338 -0.9008069 -0.34405032
000090 7d 19 cc 3e 53 4f 06 c0 dd f0 bb 3e 5f 2f 5f be
       0.39863196 -2.0985916 0.36707202 -0.21795414
0000a0 70 c6 c7 3e e3 d2 4a bf 73 2b 60 3f 95 c1 b1 bd
       0.39018583 -0.7922804 0.875663 -0.08679501
0000b0 9e f8 40 3e 57 c3 18 3f 0f 1f 83 3f 26 8e e1 3e
       0.1884484 0.59673065 1.0243853 0.44053763
0000c0 41 49 e2 be 6d c7 26 3f 78 ea ef bd 03 ef 2a 3e
       -0.44196513 0.6514805 -0.11714643 0.16692738
0000d0 d2 74 09 bf 55 d2 5b 3e 6a 02 55 3f a7 cb 24 3f
       -0.5369388 0.21466954 0.8320681 0.6437325
0000e0 2c 71 94 be 71 11 1f 3f ed 56 44 be 8b cd 71 3f
       -0.28992593 0.6213599 -0.19173785 0.9445426
0000f0 c3 b4 79 be 3a 55 d3 bf b0 7c cd be 16 b6 6e be
       -0.24385361 -1.6510384 -0.40134192 -0.23311648
000100 4b 8c 8c be e5 3e af 3f 63 2c 44 3d 35 a2 26 c0
       -0.27450785 1.3691069 0.047893893 -2.6036503
000110 f4 9d 91 3d 4a 85 45 3f c0 09 66 be 41 57 26 3f
       0.07110205 0.7715651 -0.22464657 0.6497689
000120 f7 2d e2 bd f3 f8 2c 3f 6d fe 42 bf 4a 3d b8 3e
       -0.11043923 0.67567366 -0.7616947 0.3598426
000130 e4 94 d0 be 0e f2 b0 3e 95 f4 7e 3c 46 f1 62 3e
       -0.40738595 0.34559673 0.015561243 0.22162351
000140 80 22 cf 3d 2c c5 cd 3e 1d e1 9a 3e 87 01 00 3f
       0.10114002 0.40189493 0.30249873 0.5000233
000150 5f 71 b7 be ef 9e 1e bf 8c 58 87 bf 06 d4 ee 3e
       -0.35828683 -0.61961263 -1.0573897 0.46646136
000160 8e 01 ec 3e 7a 8a 29 3e 0f 5a 51 3f d8 42 5f 3d
       0.46094936 0.16556731 0.81778044 0.054507107
000170 3a e1 20 3f 01 e3 01 bf a2 cb 9c be 39 7e 00 3b
       0.6284367 -0.50737005 -0.3062411 0.0019606485
000180 36 d3 9f be 97 81 01 be 59 98 1f be c6 21 24 3f
       -0.3121583 -0.12647091 -0.1558546 0.64114034
000190 13 5a 87 bc ad 47 59 3e d6 84 91 3e 7d 31 95 3f
       -0.016522443 0.21218748 0.28421658 1.1655728
0001a0 61 6f 03 be a3 76 b0 be 32 cf 31 be 0a 68 84 3e
       -0.12835456 -0.34465513 -0.17364195 0.25860626
0001b0 36 63 c9 3e 59 cb 7b bd d7 fa 6c bf 01 4e 16 be
       0.39333504 -0.061473224 -0.9257025 -0.14678194
0001c0 83 14 2a 3f 07 3e d2 3c a0 1b f5 bc b8 fa e4 bd
       0.6643755 0.025664343 -0.0299204 -0.11180633
0001d0 a5 ce 23 bf e1 d9 fd be 75 41 a4 be e6 dd 04 bd
       -0.6398719 -0.4958029 -0.3208119 -0.03243818
0001e0 a4 9f 56 bf 13 10 86 be ce 76 dc 3d bc ba 62 3e
       -0.8383734 -0.2618414 0.10764848 0.22141546
0001f0 23 69 e2 3e 15 bc 37 3e 8e 66 fb ba 0b 20 c1 be
       0.44220838 0.17942841 -0.0019180344 -0.3771976
000200 97 04 c2 3e 9e b6 b8 bd a0 f2 1d 3c 51 05 4c bf
       0.37894127 -0.090192065 0.009640366 -0.7969561
000210 dc 55 94 bd 04 bd 55 be 10 e3 27 c0 36 97 b9 3e
       -0.07242939 -0.20872885 -2.6232338 0.36248177
000220 5b 63 5e 3f d2 3f 28 3e b7 e4 0e 3f c9 cc 6f be
       0.86870354 0.16430596 0.5581774 -0.23417963
000230 3d 4b 67 3e 6e 6a a5 3d 5c 1c 58 3e a2 a3 20 be
       0.22587295 0.080769405 0.21104568 -0.15687421
000240 c2 75 0a bf 62 82 92 3e 3f eb 24 3b 2c 37 0e bf
       -0.54085934 0.286151 0.0025164632 -0.55552936
000250 ce 74 35 bf 80 1b 00 bf b0 5c a8 be 24 58 88 bb
       -0.70881355 -0.5004196 -0.32883215 -0.004160898
000260 73 d8 87 3f 3f c7 48 bf 81 af bf bc e3 ac 2e bf
       1.061293 -0.78429025 -0.023399116 -0.68232554
000270 12 01 00 3f 72 5b 23 bf 6d 16 ac bd 1f bf 34 be
       0.50001633 -0.6381141 -0.08402715 -0.17651032
000280 4e a5 a6 3e 1b e4 15 3d e2 7e 22 3e 85 7d 1a 3c
       0.32547992 0.03659449 0.15868714 0.00942934
000290 bd 72 ba be c0 ce 82 3f bb db c3 3a 72 30 2c bf
       -0.36415663 1.0219345 0.0014942804 -0.6726142
0002a0 29 20 4f be 46 ee f6 3d ef b3 fd be 54 61 2b bd
       -0.20227112 0.12057166 -0.4955134 -0.041840866
0002b0 b9 66 8d bf 24 95 da bc cc f4 90 3d 8a 47 48 be
       -1.1046973 -0.026682444 0.07077941 -0.1955854
0002c0 3d c7 28 3d e8 8a 20 3c 5f 51 90 3d 2e 7d 2a 3f
       0.041205633 0.009798743 0.0704677 0.6659726
0002d0 ad bf fd 3e c6 f0 c4 be 58 28 06 3e 6c a7 29 bf
       0.495603 -0.38464946 0.13101327 -0.6627109
0002e0 6e eb 07 bf 35 29 85 3d 00 52 ee 3e bf e1 18 3f
       -0.5309361 0.06502 0.46546936 0.5971946
0002f0 9d 7f 89 3e 84 da 2b 3f 1c 44 ee 3e 93 10 da be
       0.26855174 0.67130303 0.46536338 -0.4259077
000300 bc 40 5e bf 37 f6 86 3e f4 8a 48 bf ec 93 e0 be
       -0.86817527 0.26359722 -0.78337026 -0.43862855
000310 cb 47 1f c0 6a d6 4a 3e 79 65 9c bd e9 14 e1 3d
       -2.488757 0.19808355 -0.07636542 0.109903164
000320 42 9c fc 3e 80 56 ad bf da 0a 1c 3f 56 e1 aa bd
       0.49337965 -1.3542023 0.6095406 -0.08343761
000330 f0 9b 53 3e d7 01 96 bd 14 d5 6a 3e 20 29 5b be
       0.20664954 -0.0732457 0.22932845 -0.21402407
000340 b2 ad 15 3e 9a da 6e 3f 7c 35 26 bf f8 be f4 be
       0.14617041 0.9330231 -0.6492536 -0.47801948
000350 63 29 65 3d 48 9f 19 3f bd 3a 80 3e 8d 09 48 3f
       0.055947673 0.6000867 0.25044814 0.78139573
000360 ca c7 b2 be 91 a4 fb 3e 11 ef ee 3e 17 86 9c be
       -0.34918052 0.49148992 0.46666768 -0.30571052
000370 f0 2f 59 be df 99 85 be a7 60 ca be b0 9e 5f 3f
       -0.21209693 -0.26093957 -0.39526865 0.8735151
000380 59 d0 ad 3e 01 9d 07 3d f8 f2 42 3f 9d 54 3b 3e
       0.3394802 0.033108715 0.7615199 0.18293996
000390 3c df 09 bd ce 6d 04 3f 52 6f 1c bf 4c 0a 48 3f
       -0.03366016 0.5173005 -0.6110736 0.7814071
0003a0 a4 ab 0a bf 2c e9 03 be aa c6 68 3f a0 cd 80 3e
       -0.5416815 -0.12881917 0.9092814 0.2515688
0003b0 a8 71 4b 3e 52 5f ce be 48 1b 01 3d bf d2 a5 bc
       0.19867575 -0.403071 0.031520158 -0.020242093
0003c0 2a d1 e2 3e 42 72 99 bd 5e 3e 03 3e cf a4 a8 3e
       0.44300205 -0.07492496 0.1281676 0.3293824
0003d0 13 1a bc be ae 76 75 be ac 8d 96 3e 8d 8d 9a bd
       -0.36738643 -0.23971054 0.29404962 -0.0754653
0003e0 0e 37 18 bd 56 3d 18 bf 71 53 68 3c 5b a8 a2 bd
       -0.03716188 -0.5946859 0.01418005 -0.079422675
0003f0 bb 22 a2 be ee 2f ce 3e b8 75 8f be 3a 1c e6 3c
       -0.31667122 0.40270942 -0.280195 0.028089631

fc2.weight f4 [128, 256]
000000 21 3d cb 3c 51 db 97 3e 11 07 fa 3d 5a c0 57 3d
       0.024809422 0.29659513 0.12208379 0.052673675
000010 ec 7d d5 bd fa c5 4b bd 74 0e a0 bd 96 4d 39 bf
       -0.10424408 -0.049749352 -0.07815257 -0.7238401
000020 dd 6b 26 bd 92 fa 7e be a8 fb 66 3e 7b 8d f7 3e
       -0.04063021 -0.24900272 0.22556937 0.4835013
000030 01 7a ad 3e 82 d5 2b 3e 1d d9 9d 3e a0 23 b3 bc
       0.33882144 0.16780666 0.30829707 -0.021867573
000040 8a b7 15 bd 39 62 b1 bb 20 88 87 bc e8 35 f1 be
       -0.03655199 -0.0054133204 -0.016544402 -0.4711144
000050 01 95 fa bc d5 b9 a7 be d4 bc e3 bd 1d b8 2a 3e
       -0.030588629 -0.32758966 -0.111200005 0.16671796
000060 80 47 2d 3e 7f 33 1d be ab f9 02 be 26 ae 3e 3b
       0.16921806 -0.15351675 -0.12790553 0.00290955
000070 ae 40 85 be 3a 79 f1 3d a4 cc 35 3d d3 d3 02 3a
       -0.2602591 0.117907 0.044384614 0.0004990671
000080 e8 1c 0f bd ef 55 4c 3e ce 5b 7a 3d 07 c3 5d 3e
       -0.034939677 0.19954656 0.061122708 0.21656428
000090 3f 58 b6 be 7b b8 e8 3d 5b fe 4f 3d d2 20 39 3e
       -0.356142 0.11363312 0.05077968 0.18078926
0000a0 36 fe 4c 3d 29 99 19 3d 23 b9 48 3e 88 9f 6d 3e
       0.050047122 0.03749958 0.19601874 0.23205388
0000b0 8b 83 ba 3e e0 03 c6 bd 92 4d e4 be 91 98 97 3c
       0.36428484 -0.09668708 -0.4459043 0.018505367
0000c0 3a 4d f9 3d b6 2f 0d be 30 88 93 be 3c 36 81 3c
       0.12172933 -0.13787732 -0.2881484 0.015772931
0000d0 f5 19 bf bd b0 18 9a 3d 59 f3 b6 be 56 71 34 bf
       -0.09331123 0.0752424 -0.35732535 -0.70485437
0000e0 a5 2a 71 3e 3b 0a 2e bf 2b 6e 62 be 97 71 67 bd
       0.23551424 -0.6798436 -0.22112338 -0.056504812
0000f0 af 44 aa 3e 5a ea a7 bc 52 0f b9 3e 32 01 88 be
       0.33255526 -0.02049749 0.361445 -0.26563412
000100 f4 e5 46 be c0 31 64 be fb 42 bd be 6b 43 74 3d
       -0.19423658 -0.22284603 -0.36965165 0.059634607
000110 7b a4 06 bf ba 9e 3b bf bf bb 34 be 0d 49 85 3e
       -0.5259473 -0.7328907 -0.17649744 0.26032296
000120 ce 26 26 be 7d a3 a6 be 2e 3e 26 3e f8 ce e1 be
       -0.1622574 -0.32546607 0.16234657 -0.44103217
000130 2b ce aa bd 3d 0f 7a bd f8 d2 cb 3e 63 ac 9b 3e
       -0.08340105 -0.06104969 0.39809394 0.30404958
000140 cf 8a 0f bc 79 21 8e 3d 42 72 47 be a4 12 8c be
       -0.008761122 0.06939978 -0.1947718 -0.27357972
000150 be fb 9c 3e ec ab 82 3e 24 77 0d be 14 c1 f6 3c
       0.30660814 0.2552179 -0.1381498 0.030121364
000160 14 49 93 bf eb 1e dc 3c 7b 66 bc 3e 91 4a 87 3e
       -1.1506677 0.026870212 0.36796936 0.26424077
000170 df 21 89 3e 9a 22 09 3f fd e9 4e 3e b9 47 24 3b
       0.26783654 0.5356842 0.20206447 0.0025067164
000180 68 3a f0 be ba 81 d9 3e 86 3e bc 3d 7e 3f f7 bc
       -0.4691956 0.42481786 0.09191613 -0.030181643
000190 89 65 76 3d ae 97 2d 3e 60 3c 19 3e 7b dd bd bc
       0.060155425 0.16952392 0.14964437 -0.0231769
0001a0 c5 42 0a bd a3 f5 0a 3f dc 22 23 be 28 ee 5d be
       -0.033755083 0.5428106 -0.15931267 -0.2167288
0001b0 a7 7e 39 bc d4 22 eb bc bc 0b 18 3e a9 79 52 be
       -0.0113217 -0.02870313 0.14848226 -0.20554222
0001c0 4f 68 57 be 33 66 44 3f 7b ce f3 3d b5 d3 35 bd
       -0.21035884 0.76718444 0.119046174 -0.044391353
0001d0 9e af 14 bf fd 25 33 3d 23 34 09 3a 33 11 ae 3e
       -0.5808047 0.0437374 0.0005233904 0.33997497
0001e0 a7 79 02 3c 5a 0b bc be 38 3e fb 3c 71 cc 4f 3d
       0.0079635745 -0.3672741 0.030669317 0.05073208
0001f0 b7 6f 87 be 3b 1e 4e bd 07 ca 5e 3e 3f 3c 56 be
       -0.2645242 -0.0503218 0.21756755 -0.2092142
000200 2b 5e 0e 3e 27 5e 60 be 25 06 68 be 7f 46 60 3d
       0.1390311 -0.21910916 -0.22658594 0.05475473
000210 73 85 9c be f4 e4 f0 bd af c4 49 3e d6 77 bb be
       -0.30570564 -0.11762419 0.19703935 -0.36614865
000220 6d 58 21 bf bf 28 28 3d e4 d5 f6 bd 3c 7e 07 3e
       -0.6302555 0.041054484 -0.12052515 0.13231748
000230 39 aa d9 3c f0 32 66 bf b2 75 ec be da 34 03 3f
       0.026570426 -0.89921474 -0.46183544 0.5125252
000240 41 cc c3 bc d5 5b 4f 3d 9f e5 97 bd 40 87 22 be
       -0.023901107 0.050624687 -0.074168436 -0.15871906
000250 65 09 62 3e 53 9b c4 be 5f e8 d3 3d ca de 80 3e
       0.22073896 -0.38399753 0.10347056 0.25169975
000260 3a 04 0b bf 47 5c 11 3e ce c1 ce be c3 f1 de 3d
       -0.54303324 0.14195357 -0.40382236 0.10885956
000270 c8 35 d0 3e ab 62 ab 3e cb 8f a4 be 5f 7a 57 3d
       0.40666032 0.33473715 -0.32140955 0.052606937
000280 7f 02 8e be c1 1b be be 84 8f af be e1 32 03 be
       -0.2773628 -0.3713055 -0.3428918 -0.12812378
000290 16 91 07 3e d1 cd a1 bd de 4c 4b 3d 89 7c 4c 3e
       0.1323894 -0.079005845 0.049633853 0.19969381
0002a0 0c 9e 1d 3e eb 0f 6c 3d 10 9b 92 3e 0a 55 89 3d
       0.15392321 0.057632368 0.28633928 0.06705673
0002b0 6e 61 9f 3d c6 78 25 3f 0d a2 5c be 89 0c 28 3e
       0.07782255 0.6463741 -0.21546192 0.16411032
0002c0 cb 05 4d 3e f3 48 c6 be 3f 0c 51 be 2e cd 82 be
       0.20021741 -0.3872753 -0.20414828 -0.25547165
0002d0 c7 97 d8 bd df 1d 0b 3c 4f 2b 0e 3e 02 62 e5 bd
       -0.10575824 0.008491009 0.13883708 -0.11200334
0002e0 32 94 b7 3e 0d 6e c7 bd c7 23 4f 3d 57 c4 f4 be
       0.35855252 -0.097377874 0.05057123 -0.47806045
0002f0 f8 86 9d 3e 37 41 2a be e9 b7 3c be 28 d7 50 3e
       0.30767035 -0.1662644 -0.18429531 0.20394576
000300 66 c3 b2 3e 22 2b f0 bc f5 51 21 be a4 eb 8f be
       0.34914702 -0.029317442 -0.1575392 -0.28109467
000310 78 b9 94 be 8a 61 ad bd 9a ae c5 3d 8e 5a 02 be
       -0.2904775 -0.0846587 0.09652443 -0.12729856
000320 5a e4 58 be 0b 1d 49 3e 67 69 46 3d ad 78 e7 be
       -0.21180859 0.19639985 0.048440363 -0.45209256
000330 bc 21 da 3c c5 00 d9 3e f3 ca 62 3c e5 90 6d 3e
       0.026627414 0.423834 0.013842332 0.23199804
000340 a3 19 ae be ca 19 9a 3e ad 36 75 3b c5 71 eb 3e
       -0.34003934 0.300978 0.0037416623 0.45985237
000350 31 ff 07 be cc 0a 0b 3e 13 c0 8f bc 29 c8 c5 be
       -0.13280942 0.13578337 -0.017547643 -0.38629273
000360 d0 80 08 3d af 85 a5 be e4 90 34 3e ab 5c 88 be
       0.03332597 -0.32328555 0.17633396 -0.266332
000370 5a e5 80 3e af 63 a1 3e 83 db f4 3d d3 9d a6 be
       0.2517498 0.31521365 0.11955931 -0.32542285
000380 1b c5 55 be ac f7 b2 3d f4 97 30 bf 5c 47 0e be
       -0.20875971 0.08738646 -0.6898186 -0.13894409
000390 82 34 d1 be b7 92 90 bf 5d 06 94 be 5f d0 56 3e
       -0.40860373 -1.1294774 -0.28911105 0.20977925
0003a0 b5 78 d2 3d 9e 77 95 3e 09 82 d1 be 3d 79 51 3e
       0.10276929 0.29192823 -0.4091952 0.20456405
0003b0 3d 0d f5 3c 27 ba c2 3e 05 c6 52 be 1e 1b dd bd
       0.029913539 0.38032648 -0.20583351 -0.10796188
0003c0 9a 9f 1b be 7c e3 0f 3f 8a 9b 3d 3e 53 04 86 be
       -0.15197602 0.5620649 0.18516365 -0.26175174
0003d0 3b c8 96 be 09 b1 53 bd 4c 6d c6 3e 8f db 63 3e
       -0.2944964 -0.051682506 0.38755262 0.22251724
0003e0 68 54 07 3e d1 c7 c2 3d d5 df e1 3d 49 6d cd bd
       0.13215792 0.09510768 0.11029021 -0.1003061
0003f0 70 08 6a 3e d4 95 bd bd 9a d2 94 3e 97 00 24 3e
       0.22854781 -0.09257093 0.29066926 0.1601585

fc2.bias f4 [128]
000000 15 57 c0 be a5 29 9d bb c6 7d 10 3f 99 ad 27 bf
       -0.37566438 -0.004796224 0.56441915 -0.65499264
000010 6d 8a 46 3e 7a 07 22 be fa 3f 70 3f c0 ab 2a be
       0.19388743 -0.15823165 0.9384762 -0.1666708
000020 59 e8 94 bc 7e 87 49 be f1 52 a6 3e 2c 31 1b 3f
       -0.018177198 -0.19680592 0.32485154 0.60621905
000030 85 78 51 bf 31 38 92 bf a7 f8 93 be e7 c3 7c be
       -0.81824523 -1.1423398 -0.28900644 -0.24684106
000040 e6 d3 7c 3e e5 e6 15 3f 83 dd ad 3e 41 9a 41 be
       0.24690208 0.5855544 0.33958063 -0.189065
000050 2c a1 7e 3f 28 de 69 be 8e 33 92 be b3 18 0e bf
       0.9946468 -0.22838652 -0.28554958 -0.5550644
000060 a5 b0 04 3f af 4f d2 bd 21 79 56 be f6 ff 31 3f
       0.5183204 -0.10269105 -0.20944645 0.6953119
000070 44 eb ff be d2 7f ed 3e bb ad 21 3f c5 bf 52 bb
       -0.4998418 0.46386582 0.63155717 -0.003215776
000080 1e e3 a1 be 68 96 49 be e1 6c 17 bc 37 d4 c5 3e
       -0.3161859 -0.19686282 -0.009242267 0.3863847
000090 7c aa fb 3e 3d 32 3f bd 15 68 16 3d be 89 0c 3f
       0.49153507 -0.04667877 0.036720354 0.5489768
0000a0 15 f7 12 3e ca 57 ad bd 66 b2 56 bf de 0d f4 3e
       0.14352067 -0.0846401 -0.83865964 0.4766683
0000b0 f5 df 52 3e 2b 46 33 bf 28 fe e9 3f db fa a7 be
       0.20593245 -0.7002894 1.8280687 -0.32808575
0000c0 90 34 82 3f 09 66 89 3d 4a 43 7a bd f7 db b7 3e
       1.0172291 0.06708915 -0.061099328 0.35910007
0000d0 a7 91 0d bf 15 7c a6 bf 57 2b d2 bd 99 52 4b 3f
       -0.5530037 -1.3006617 -0.10262173 0.7942291
0000e0 b2 af 83 3f 07 a6 21 3f d6 e0 60 bd dc e2 8d 3e
       1.0287993 0.6314396 -0.05490192 0.27712142
0000f0 e5 9e 42 3f fc dc 17 3f 7c c2 4a bf b8 a3 6f bd
       0.76023704 0.5932157 -0.7920301 -0.058505744
000100 b4 d8 ec 3e 59 f0 71 3f e8 13 58 3f bb c9 ce bf
       0.4625908 0.94507366 0.84405375 -1.6155313
000110 c1 e9 a7 3f ca b9 13 bd c6 79 10 bd cd 78 23 3f
       1.3118211 -0.036065854 -0.035272382 0.638562
000120 de df 6b 3f 2f b8 c5 3e 94 cd 0c bf 5a 3e e7 3e
       0.9213847 0.38617083 -0.5500119 0.45164758
000130 34 30 c8 3f 57 ff 89 bf c6 c9 7a be d9 ac 7f be
       1.563971 -1.0781049 -0.24491033 -0.2496828
000140 94 bf 64 bf 67 f9 c3 3f d6 71 48 3f 35 17 82 3e
       -0.89354825 1.5310487 0.782987 0.2540833
000150 21 f8 46 bd 74 a5 44 3c f1 02 27 bf c8 63 61 bc
       -0.048576478 0.012002338 -0.65238863 -0.0137567
000160 25 62 75 be 51 df 7e 3f 4b db 29 3f e1 fb 78 3f
       -0.2396322 0.99559504 0.6635024 0.97259337
000170 4d e8 a0 3e 82 92 af be c8 c7 18 be e8 27 77 be
       0.3142723 -0.34291464 -0.1491996 -0.24136317
000180 e0 c7 ad be 6e 3c 03 3f b8 c4 bc 3f 42 ba cf 3f
       -0.33941555 0.51264083 1.4747534 1.6228716
000190 3a b9 20 bf f1 b8 1c bf e9 cb 05 3e 45 c8 12 3e
       -0.62782633 -0.612197 0.13066067 0.1433421
0001a0 e8 7b 0f 3f 5d 9d df 3e 55 20 00 3e 72 3c c7 be
       0.5604844 0.43674746 0.12512334 -0.38913304
0001b0 4d 5a 7d be 9b c1 ee 3e 70 66 10 3f 48 83 57 bd
       -0.24741478 0.46632084 0.5640631 -0.052615434
0001c0 d3 f9 81 bf ca 9e 71 bb b7 e8 80 be 50 d4 ba bd
       -1.0154365 -0.0036868327 -0.25177547 -0.09122527
0001d0 cf a0 03 3f ee 7e fc 3d 40 89 ee 3d dc af 16 bf
       0.5141725 0.123288974 0.11647272 -0.5886209
0001e0 cc 2a b2 3e 45 ce 12 bf c7 c8 c7 be b7 d3 ab be
       0.34798276 -0.5734599 -0.39020368 -0.33559963
0001f0 ee 84 d8 3d 66 85 17 bf 6c d4 8c 3e 9f 0c 1d 3f
       0.10572229 -0.59187925 0.27505815 0.61347383

fc3.weight f4 [15, 128]
000000 e2 5b d7 bd 06 d8 50 be 5d 79 b9 3d c4 da bf 3d
       -0.10515572 -0.20394906 0.09056351 0.09367898
000010 92 76 1e be ef 3b 0c 3e 8e a2 16 3e 21 c8 c9 bc
       -0.15474918 0.13694738 0.14710447 -0.024631562
000020 0a 05 14 be 56 c9 a3 be aa 5b 39 3a 63 81 c4 3d
       -0.14455047 -0.31989545 0.0007070849 0.09594991
000030 59 74 c8 3c 71 20 53 3d b4 56 2b be 6f c1 46 bf
       0.024469541 0.05154461 -0.16732293 -0.77638906
000040 33 bc 6c 3e 64 f6 be be c0 44 fc bc d2 05 39 3e
       0.23118667 -0.37297356 -0.030794501 0.18068627
000050 51 10 cf 3d 14 6c 70 be 7f 9d 34 3d 49 df f8 bc
       0.10110534 -0.23478729 0.044095512 -0.030379908
000060 dc ae 97 3e 22 c6 f6 bd 05 cf b0 be 79 22 a8 be
       0.29625595 -0.120495096 -0.34532943 -0.328388
000070 da de a5 bd 42 e9 41 be 5a 46 1e 3e cd 6d b5 be
       -0.08099146 -0.18936637 0.15456524 -0.35435334
000080 6f 9c 5d be 76 6e 34 3a 2b 9d 6c bd 3e dc a9 bd
       -0.21641706 0.0006882915 -0.057767075 -0.08293961
000090 a2 d4 03 bf a5 63 00 be 80 bb f3 3d 80 14 31 bd
       -0.51496327 -0.12538011 0.11900997 -0.04323244
0000a0 3d 1d a1 be 1d 52 19 3e ff 41 45 3e 12 36 64 be
       -0.3146762 0.1497273 0.19263457 -0.22286251
0000b0 91 b9 6d 3d 10 74 e9 be 56 b6 9a be 74 15 1c be
       0.058038298 -0.4559636 -0.30217236 -0.15242559
0000c0 f2 1d d1 3d 77 b4 70 be 82 68 d7 be 5f 66 ef be
       0.1021079 -0.23506342 -0.4207192 -0.4675779
0000d0 f1 fe 83 be 03 3d 2b bc 42 cc 8a bd dd 2f 72 bc
       -0.25780442 -0.010451558 -0.0677724 -0.014781919
0000e0 91 40 ad bc 4f c7 07 bd c9 73 ed 3d 53 a5 73 be
       -0.021148952 -0.03314906 0.1159435 -0.23793535
0000f0 24 b8 f3 3d 7e 97 5e be 81 7d 0e 3e 82 69 a3 be
       0.119003564 -0.21737477 0.13915063 -0.31916434
000100 50 79 bc bd 58 88 76 be a7 12 f3 be 1c 1b 42 3d
       -0.09202826 -0.24075449 -0.47475168 0.047389135
000110 1a d2 28 be f1 b5 17 bd 81 66 6e 3e 17 44 86 be
       -0.16486397 -0.037038747 0.2328129 -0.26223823
000120 5e 09 68 3d 77 cd 9e be 51 a8 78 3d 2c 75 54 be
       0.05664956 -0.31016132 0.060707394 -0.20747823
000130 36 02 00 bf 1a 50 3e be 09 ee 82 3c 84 fa 95 bd
       -0.50003374 -0.18585244 0.015982645 -0.07323173
000140 5a 86 13 bd 08 ff 98 3e 8b 9d 06 3e ef 41 2c 3e
       -0.0360168 0.29882073 0.13146035 0.16822027
000150 ca d8 14 3d 3e 72 09 bd 66 d8 e7 3d 3d 9d 34 bd
       0.03633956 -0.033556215 0.113205716 -0.044095267
000160 3c ae 02 bf 8b 28 bc be 21 04 09 3e 56 22 2d be
       -0.5104711 -0.36749682 0.13380481 -0.1690763
000170 a0 3d 3b 3d c8 30 58 3e 1d 03 88 3e 89 2b 22 be
       0.045713067 0.21112359 0.26564875 -0.1583692
000180 cc b9 b5 be 48 98 66 3d d2 aa 19 3c e1 00 14 bf
       -0.35493314 0.05629757 0.009379106 -0.5781384
000190 97 98 c2 3d e2 f5 a0 3e 18 09 02 bf ec 20 98 3d
       0.095017605 0.31437594 -0.50795126 0.07428154
0001a0 98 1a 11 be 2e 0e 10 be 5b 3f ae be 1e 38 8c 3e
       -0.14170301 -0.14067909 -0.3403271 0.27386564
0001b0 80 da a6 3e 12 ee e5 3d 8a c9 b1 be e7 fa 12 bd
       0.32588577 0.11227049 -0.34724075 -0.03588381
0001c0 36 31 51 3d 04 93 8c be e2 c3 96 be f3 76 c4 bd
       0.05107232 -0.27455914 -0.29446322 -0.09593
0001d0 e1 97 03 3e 62 a0 22 bf 3d 74 23 3e 60 bc d3 3d
       0.12850906 -0.63525975 0.1596231 0.10338664
0001e0 93 9e da 3e 32 06 93 be a8 a3 1f be 2a 80 11 bf
       0.42699108 -0.28715664 -0.15589774 -0.5683619
0001f0 20 50 58 be ee aa 99 3e e5 cb 0d 3e 7c a8 f3 bb
       -0.21124315 0.30013222 0.13847311 -0.0074358564
000200 de 3a 35 be ba 0d f0 bc 8b 88 1d 3e ca 6a 99 be
       -0.17698237 -0.02930342 0.15384118 -0.29964286
000210 80 a2 2f be 64 67 c2 bc 58 65 3d 3e 88 f4 3a bd
       -0.17151833 -0.023730941 0.18495691 -0.04564336
000220 66 0c e6 3d 57 64 51 be 58 a6 0f 3d 18 b2 e6 3c
       0.112328336 -0.20448433 0.035070747 0.028161094
000230 d6 f9 f7 bd 63 bf 96 be 4c 85 68 be bd 39 b7 be
       -0.12108199 -0.2944289 -0.22707099 -0.35786238
000240 7a f9 65 3e 2d 61 8a 3d d2 84 81 be 49 3b 1c be
       0.22458449 0.06756816 -0.25296646 -0.1525699
000250 2f 4e 46 3e 80 6d c3 bd b3 2c fb bd 65 54 21 be
       0.19365762 -0.0954237 -0.12264385 -0.1575485
000260 1a 22 3e be 11 47 bf bc a4 28 0c bf 34 ad 84 3d
       -0.18567696 -0.023349317 -0.5474951 0.064783484
000270 e9 74 55 bc e0 01 2e 3d 9f bc d6 3c b7 61 49 be
       -0.013028362 0.042482257 0.026212988 -0.19666182
000280 c9 70 a4 be 7f 72 2d 3e fd c3 3b 3c 19 9f 8c be
       -0.32117298 0.16938208 0.0114603015 -0.27465132
000290 27 df a1 be 0b 9a 8f bb a6 9d 1b 3d 7b 5d e4 3d
       -0.31615564 -0.004382377 0.037992142 0.111506425
0002a0 f8 44 77 3c 47 f2 66 bd 54 00 e1 be 94 5b 7d 3d
       0.015092127 -0.056383397 -0.43945563 0.061854914
0002b0 1e 0f d1 3d cb 2d 70 be 21 4f d8 3e cd 36 f9 be
       0.102079615 -0.23454969 0.4224787 -0.48674622
0002c0 36 d9 fb 3d cf 8e 43 bd c5 80 60 be c2 a4 76 3d
       0.12297289 -0.047743615 -0.21924122 0.06021572
0002d0 ad 57 5b bc 57 3b ba be b1 e3 cc be b7 a7 ed be
       -0.013387603 -0.36373398 -0.40017465 -0.4641702
0002e0 86 1b 94 3d fa 32 4d 3e 99 b6 2b be f1 50 21 be
       0.07231812 0.20038977 -0.16768874 -0.15753533
0002f0 e6 31 b8 3d 86 63 8d bd e3 66 8e be 52 3e 71 be
       0.08993892 -0.06903748 -0.2781287 -0.2355893
000300 b4 69 b2 3d db d7 6f 3e 5a 6b 11 3e 2d 67 7d be
       0.087115675 0.23422186 0.14201108 -0.2474639
000310 a3 19 0e 3f fc 42 04 3d 68 61 59 be 47 9f 21 3e
       0.5550787 0.032290444 -0.21228564 0.15783416
000320 a9 3b 32 3e 28 f3 09 3e 92 71 1f bc e0 a4 c9 bd
       0.17405571 0.13471663 -0.009731667 -0.098459005
000330 f0 2a ac 3e 37 8a e8 be 5f 45 1f bf f7 f8 b3 bd
       0.3362651 -0.4541795 -0.62215227 -0.08787721
000340 03 c9 2c be c7 ea af 3e 9e 6b 13 3d 5e 94 28 3e
       -0.16873555 0.34358808 0.035991304 0.16462848
000350 d5 91 0c be 6f c4 75 3d 22 48 b4 bd 73 34 56 be
       -0.13727506 0.060001787 -0.08802821 -0.20918445
000360 95 75 54 3c 17 97 07 3e 6b f8 c6 3d d2 6f 21 3d
       0.012967487 0.1324123 0.09715351 0.03941328
000370 be 26 1b 3e 34 8d ee bd d0 5a bf be bf 1e e9 bd
       0.15151498 -0.11648026 -0.37373972 -0.113828175
000380 a6 72 a4 bd 0d 53 f5 3d 11 5d 27 3e b5 ee 7e 3e
       -0.0802968 0.11978731 0.16344096 0.24895747
000390 53 b2 91 be a5 7e 2a be e5 ba 39 3d c5 20 63 bc
       -0.28456363 -0.16649874 0.045344252 -0.013862793
0003a0 ec 7c f6 bd 70 6a 14 3e d8 d8 67 3c 46 1e 26 be
       -0.12035546 0.14493728 0.014150821 -0.16222486
0003b0 f8 44 5c be 7e d8 e1 bd a6 21 b9 3d 74 b4 83 bd
       -0.21510684 -0.11027621 0.09039621 -0.06430903
0003c0 2b df 7e be 5d b5 4e be 56 b1 d2 be 1a 3d a5 bd
       -0.2488982 -0.20186372 -0.41150922 -0.08068295
0003d0 ee 54 fc 3d d9 19 ad bd b5 68 4a bd 14 f3 cc bd
       0.123208866 -0.08452196 -0.049416263 -0.10007301
0003e0 83 b4 16 3e fc ed 0c be 63 4b 04 be 15 1e a9 3d
       0.14717297 -0.13762659 -0.12919383 0.08257691
0003f0 07 00 b6 be a1 a3 e7 bd c7 5d 3c 3e 68 a6 99 3e
       -0.35546896 -0.113105066 0.18395148 0.3000977

fc3.bias f4 [15]
000000 ca e4 c1 bd e4 4c cc 3f ce ca de bd 5b 20 f5 be
       -0.09467466 1.5960965 -0.10878526 -0.47876248
000010 4f dc b4 be e9 20 01 bf 3c 62 49 bd 5a 88 d5 be
       -0.35324332 -0.5044084 -0.04916595 -0.4170559
000020 52 1f 1a bf f7 dd 35 3e 72 ca a1 bd cd 7c 52 3e
       -0.6020404 0.17760454 -0.078999415 0.2055542
000030 36 84 de 3e 71 b4 5d be 57 26 42 bf
       0.43460244 -0.21650864 -0.7583975
