reconhecimento-desenho-3-0/modelo_pytorch.pt (torch, 948841 bytes, 6 tensors)

fc1.weight f4 [256, 784]
000000 b8 36 c2 3b bc d1 01 bd 18 1f b7 bc ca 9d f4 3c
       0.005926933 -0.03169416 -0.022353694 0.029860396
000010 20 fa 23 bb 75 21 da bc 10 5f 17 3c 20 aa 09 bc
       -0.0025020912 -0.026627282 0.009238973 -0.008402377
000020 30 f7 60 3c 46 35 cc 3c 90 01 3a bb 32 05 c7 3c
       0.013730809 0.024927747 -0.002838228 0.02429447
000030 de 31 9b bc ae bc f3 3c 0a ad 10 bc d4 81 6a 3c
       -0.018944677 0.029753055 -0.008830318 0.01431318
000040 4e 94 ee 3c da 5a 93 3c 26 88 07 bd e9 bc 0a 3d
       0.029123452 0.017987657 -0.033088826 0.033871565
000050 5e 29 90 3c b8 e7 c3 3b 10 a0 50 bb 75 ef a3 bc
       0.01759785 0.0059785508 -0.0031833686 -0.020011643
000060 dc 96 43 3c 51 26 03 3d f4 5d 3b 3c ba 4d 91 bc
       0.011937823 0.032018963 0.011435974 -0.017737258
000070 f0 bd dc bb 79 1c dc be 02 a2 97 bf e4 ff 09 c0
       -0.0067365095 -0.42990473 -1.1846316 -2.1562433
000080 a5 f5 2d c0 42 23 4a c0 ce b1 ea bf 75 be a1 bf
       -2.718118 -3.158402 -1.8335512 -1.2636248
000090 bf 7c b3 bf 5b d5 03 3d de 1b 62 be 8d ba e9 be
       -1.4022444 0.032185894 -0.22080943 -0.4565014
0000a0 3f 80 1e be cf ed 0b 3f 28 44 89 3f 68 7d be 3e
       -0.1547861 0.5465974 1.0723925 0.37205052
0000b0 2b 5c c1 be be 3b c3 bd 11 bf 62 3e 98 b3 ac 3f
       -0.3776563 -0.09532879 0.22143199 1.3492308
0000c0 d4 68 2b bf 8c b1 12 c0 8f 87 d4 be ec 42 9a 3f
       -0.6695683 -2.2920866 -0.41509673 1.2051673
0000d0 3e 17 fa 3f d7 04 29 3f 85 90 bb 3f 55 35 11 3d
       1.9538343 0.6602301 1.4653479 0.035451252
0000e0 d5 bb 9d bc be 86 92 bf 7b 03 15 c0 09 3b 3c c0
       -0.019254604 -1.144737 -2.3283374 -2.9411032
0000f0 a5 e1 61 c0 34 ab 42 c0 f5 60 e9 bf fb cd ed bf
       -3.5293972 -3.0416994 -1.8232714 -1.8578485
000100 df d6 8a bf 57 b8 cf be 9d b9 18 be 2c 9f 19 bf
       -1.0846823 -0.40570328 -0.14914556 -0.600085
000110 e7 55 7a bf ba cf 6e bf 38 d4 47 3f ff c9 09 3e
       -0.97787327 -0.93285716 0.78058195 0.13455962
000120 05 1e 63 3e 0c d0 59 3e bb bf 15 3f 6e 6a 30 3f
       0.2217942 0.2127077 0.5849568 0.689124
000130 ec f2 c2 bd 49 cb 04 c0 51 ed e9 bf 29 2c 83 3f
       -0.0951899 -2.0749075 -1.8275548 1.0247852
000140 f5 f6 da 3f 03 4d ac 3f 92 36 23 40 fe e4 f1 3c
       1.7106615 1.3461002 2.5502057 0.029528137
000150 5e 42 b6 3c d2 e7 d0 bf 0e 41 36 c0 ed 4d 48 c0
       0.022248443 -1.6320746 -2.8477206 -3.1297562
000160 9f 32 29 c0 49 6e e2 bf e6 92 9f bf 0b 46 de bf
       -2.6437147 -1.7689906 -1.2466705 -1.7365125
000170 b9 62 bf bf 62 49 be be f4 5e 81 bf d6 17 80 bf
       -1.4952003 -0.37165362 -1.0107102 -1.0007274
000180 b7 c0 b8 bf dc d9 a9 bf 2f d7 b9 bd fc d4 54 3e
       -1.4433812 -1.326961 -0.09074246 0.20784372
000190 40 f6 0b 3e 10 46 3a 3f f5 67 6e 3e 0b 7e 92 3e
       0.13668156 0.72763157 0.23281844 0.28611788
0001a0 1f e1 85 bf e9 e8 56 bf cf 79 6d bd b0 e2 9c 3e
       -1.0459327 -0.8394914 -0.057977494 0.306417
0001b0 3f 80 92 3f 13 b2 02 3f a8 6f 8d 3f dc 6f b8 3c
       1.1445388 0.5105297 1.10497 0.022514276
0001c0 c0 b9 bc bb f0 05 23 c0 4a 87 92 c0 79 b9 c4 bf
       -0.005759448 -2.5472374 -4.579015 -1.5369102
0001d0 e8 fb 8b bf a6 97 f5 bd c5 f6 af bf 61 a9 af be
       -1.0936251 -0.11991815 -1.3747183 -0.34308913
0001e0 20 f5 52 3f 8e b5 94 be 75 5b 8d bf 17 f2 8e be
       0.8240528 -0.29044765 -1.1043535 -0.27919075
0001f0 c2 c6 5e 3e 80 db c0 be 85 0e 2e be b3 a5 cc 3e
       0.21755508 -0.37667465 -0.16997726 0.39970168
000200 df 36 8a bf 8e 36 4a bf f8 f2 1b bf b2 fd ee bb
       -1.0797995 -0.78989494 -0.60917616 -0.0072934264
000210 8b 40 ab bf 21 e7 75 bf ad 2a 41 be a2 28 60 bf
       -1.3379072 -0.960558 -0.18863936 -0.87562
000220 c2 2e 81 3f 2f eb 39 3f 4a 38 f1 3f 14 9d 15 3c
       1.0092394 0.72624487 1.8845303 0.009131689
000230 73 75 01 3d a4 a2 8b c0 18 6b d5 c0 8f 98 93 c0
       0.03160615 -4.3636036 -6.669323 -4.612373
000240 6e 99 26 c0 07 78 88 bf aa d7 7a bf 19 6b b2 3e
       -2.6031146 -1.066163 -0.9798533 0.34847334
000250 76 69 26 3e 7e e3 40 3f 6b 00 19 bf 40 18 ab bd
       0.16251168 0.75347126 -0.5976626 -0.08354235
000260 60 34 0f bf 1a 23 03 bf 9b fe 21 bf 46 59 85 bd
       -0.5593929 -0.51225436 -0.6327912 -0.06511168
000270 35 b4 7b bf 3c 13 af be 44 d1 a9 be ad 9a 48 3f
       -0.9832185 -0.34194362 -0.3316747 0.78361017
000280 2b b6 d7 be 02 74 90 bf c1 b5 98 bd 92 ab 55 3b
       -0.4213117 -1.1285403 -0.07456542 0.0032603485
000290 7e 83 c2 3f 53 cc dc bd 1c ef eb 3e 63 9a c2 bc
       1.5196378 -0.10781159 0.46080863 -0.023755258
0002a0 8a 54 ec 3c 26 db 94 c0 13 f2 44 c0 89 0a ad bf
       0.028848905 -4.6517515 -3.077275 -1.351884
0002b0 23 7b 2e be 43 5b 7c 3e 8d 1f d6 3e f7 8e 93 3f
       -0.1703916 0.24644189 0.41820946 1.1528004
0002c0 1c 7c d9 3e 96 29 d8 3e d6 e2 bc 3e e2 2c 9f bd
       0.424775 0.42219228 0.36891812 -0.077722326
0002d0 14 61 f3 3d c3 32 25 3f 97 9e a3 be cd 00 d6 be
       0.118837506 0.6453058 -0.31956932 -0.41797486
0002e0 97 00 7f bf 6e 01 bf be a8 df 18 bf 8e ec 21 bf
       -0.99610275 -0.37305778 -0.5971627 -0.6325158
0002f0 9d ae 01 bf 18 6c 18 bf b7 0a 96 3e 2c d9 5f 3e
       -0.50657064 -0.5953994 0.2930505 0.21860188
000300 49 51 8f 3f 78 76 20 bf 8a 4d 6a 3e 41 8d 08 3d
       1.1196681 -0.6268077 0.22881141 0.033337835
000310 ca 38 6a bc b8 0d bb c0 47 15 de bf b7 9d 79 3e
       -0.014295766 -5.8454247 -1.7350243 0.2437657
000320 e6 be b9 3e e7 78 b7 be 4d f0 83 3f e5 7c 76 3f
       0.36278456 -0.3583443 1.0307709 0.96284324
000330 38 1b 88 3f 77 c1 cb 3e 17 3f 1f 3f ed 6a a5 3e
       1.0633307 0.3979604 0.6220564 0.3230814
000340 92 18 1d bf 85 81 bd 3e b2 d5 a2 bf c1 fc 62 bf
       -0.61365616 0.37012878 -1.2721465 -0.8866692
000350 75 ba be be 39 f0 18 bf e1 29 43 be 3c 43 26 bf
       -0.3725163 -0.5974155 -0.19058944 -0.6494634
000360 b8 6b 1a bf 17 1e 3a bf 04 d4 43 3f a1 44 d8 be
       -0.60320616 -0.72702163 0.76495385 -0.4223986
000370 7e 5a 1f 3f 6d 1b b4 3d 0d c8 2d 3f 00 af a0 bb
       0.62247455 0.087942936 0.6788338 -0.004903674
000380 a6 0e 19 bc 27 6f 1a c0 bd ef c0 bf 75 2a c4 3e
       -0.009341871 -2.4130342 -1.5073162 0.38313642
000390 cb 42 4a bd 96 ad 2a bd f4 bf cd 3e 78 f7 b9 3e
       -0.049380105 -0.04166945 0.4018551 0.36321616
0003a0 34 5c 2f 3f 76 b1 8b 3e 46 98 95 3c fa 8b d0 3e
       0.68500066 0.2728383 0.018261086 0.40731794
0003b0 44 ee 90 be 8d e1 8c be 85 1c cc be 70 1b e9 3b
       -0.28306782 -0.27515832 -0.3986551 0.0071138665
0003c0 df 3b 81 be 10 0a 4f bd ba b7 f6 bc bc f5 64 3e
       -0.2524099 -0.050546706 -0.030116905 0.22359365
0003d0 e1 03 7e 3d 4c bd 29 bf b0 c2 27 bf d6 c9 55 3d
       0.062015418 -0.6630447 -0.65531445 0.05219444
0003e0 06 4d 8c 3f 1d 88 53 3f cc 96 dc be f6 29 fa 3c
       1.0961006 0.8262957 -0.430838 0.030537587
0003f0 8a 66 c3 bc 18 ab 7b bf d3 be 69 be b4 5d 92 bc
       -0.023852605 -0.98307943 -0.228267 -0.017866947

fc1.bias f4 [256]
000000 02 67 64 bf ea 0e f7 be 2d 55 e6 3f 82 1a 6f c0
       -0.8921968 -0.48253566 1.7994744 -3.735993
000010 ad 87 20 bf 90 f3 15 bf 86 52 96 3e bc 4b a1 be
       -0.62707025 -0.5857477 0.29359835 -0.31503093
000020 1c c7 de 3f 8d 34 43 3f 00 a0 fa bf 83 3d 77 bf
       1.7404513 0.7625206 -1.9580078 -0.96578234
000030 ab 21 2a be fc 3f 12 c1 df 74 65 3e 99 16 d3 3f
       -0.16614406 -9.140621 0.22407864 1.6491271
000040 a7 14 36 40 51 92 24 bf cf 32 a1 bf 82 84 58 3f
       2.8450105 -0.6428576 -1.259363 0.8457719
000050 b2 2b 1b 40 96 10 b9 bf 4b 68 07 40 d2 3b df be
       2.424542 -1.4458187 2.1157405 -0.43600327
000060 1b 4d 2d 3f aa 3a 08 c0 f1 96 d1 3f 7f 01 25 bf
       0.6769578 -2.1285806 1.6374189 -0.6445541
000070 3d 60 37 bf e4 5c 13 be a2 6e 81 3f bc 8a 39 3f
       -0.7163122 -0.14390904 1.0111887 0.72477317
000080 c8 a0 17 40 06 81 9b be 5a ef e2 3e 95 99 af be
       2.3691883 -0.30371875 0.44323236 -0.3429686
000090 6d ec 81 bf a1 47 77 40 e0 6b 44 3e a3 6c 31 40
       -1.0150276 3.863747 0.19181776 2.7722557
0000a0 19 0b 6e bf b7 86 b1 3f 34 9c 72 3d ab 44 c5 3f
       -0.92985684 1.3869237 0.059231 1.5411581
0000b0 a8 0f 8d bf d2 9d 99 3e 6c 16 d4 c0 99 64 75 3e
       -1.1020403 0.3000322 -6.627737 0.23964156
0000c0 e0 1b 7f 40 0d b3 43 be e8 61 94 bf 66 bf 46 c0
       3.9860764 -0.19111271 -1.1592379 -3.105432
0000d0 0c 84 b7 3f 24 00 87 bf 78 87 1c 40 c6 76 d8 bf
       1.4337173 -1.0546918 2.4457684 -1.6911247
0000e0 b4 41 74 3f 9a 45 bf bf 25 63 35 c0 f9 5e 31 bf
       0.95412755 -1.4943116 -2.8341763 -0.6928554
0000f0 f1 71 f9 be e0 bb ca 3f 85 a2 2e 3f 36 de 27 40
       -0.48719743 1.5838585 0.68216735 2.6229377
000100 04 90 72 3f 02 d7 0f 3f 5e 51 c6 3e fc 30 92 be
       0.94751 0.5618745 0.38733953 -0.28552997
000110 e1 34 fb be e5 67 01 40 d6 6b 5a 3c f7 c7 77 3e
       -0.4906378 2.0219662 0.013331374 0.24197374
000120 d2 80 f9 3f a7 60 09 be d4 9d b1 bd f5 e1 93 3f
       1.9492438 -0.13415776 -0.086726815 1.1553332
000130 aa 10 f2 be 14 66 4d bf 1c a9 07 40 38 7c 03 c1
       -0.4727834 -0.80233884 2.1196966 -8.217827
000140 88 1f 0a 3f 5f ab 22 40 7b 80 05 bf a1 8e 64 bf
       0.5395436 2.5417097 -0.5214917 -0.89280134
000150 76 9b b2 bf 63 08 51 bd 0d 08 0b bf 56 f0 6b bc
       -1.3953693 -0.05103339 -0.5430916 -0.014400562
000160 4c b4 d0 be 2c 86 fd 3e ab e2 9a be 3b e2 a1 3c
       -0.40762556 0.49516428 -0.3025106 0.019761195
000170 00 2e bd 3f 9e db 04 3f f7 f3 5a 3f 8b 30 27 bf
       1.4779663 0.5189761 0.8552851 -0.65308446
000180 66 09 40 be 2c 75 a2 bf 11 e2 c4 3f 14 34 23 40
       -0.18753585 -1.2692008 1.538149 2.5500536
000190 4f b3 76 bf 26 b1 4c c0 c8 3a 03 c0 7e 85 c1 bf
       -0.96367353 -3.1983123 -2.0504627 -1.5118864
0001a0 7c a6 3c 3e 91 ab 9f 3e bc e6 28 bd 20 88 49 bf
       0.18422884 0.31185582 -0.04123567 -0.78723335
0001b0 0b 58 3d c0 ce e7 21 bd 94 33 a3 be c7 fc eb 3f
       -2.9584987 -0.039527707 -0.31875288 1.8436517
0001c0 17 1f 66 40 0e 80 f7 bf d9 e9 1b bf 26 f2 d5 bf
       3.5956476 -1.9335954 -0.609037 -1.6714523
0001d0 f9 33 1a 40 e3 ac cb bf 76 da 0f bf 83 e8 cb c0
       2.4094222 -1.5912136 -0.5619272 -6.372133
0001e0 22 ec 99 bf 35 d7 94 c0 c7 77 48 3e d4 c6 93 3e
       -1.2025187 -4.6512704 0.19576941 0.2886263
0001f0 40 de 8c 3c 14 59 fd 3f 6f 4d 80 bf ec 5d a0 3e
       0.01719582 1.979281 -1.0023631 0.31321657
000200 e8 19 e1 be 33 05 4c 40 38 50 4c 40 66 73 35 40
       -0.43965077 3.1878173 3.1923962 2.8351684
000210 b7 9e 75 40 59 67 88 bf f5 38 30 bf 39 5a 3a c0
       3.8378122 -1.0656539 -0.6883691 -2.9117568
000220 b6 e2 56 be 87 74 2c c1 74 7c e3 c0 ce e3 f2 c0
       -0.20984921 -10.778449 -7.108942 -7.590308
000230 99 41 e4 bd 78 1d 39 be 10 69 41 bd eb 55 0d 40
       -0.11145324 -0.18077648 -0.047219336 2.208369
000240 fd 1b 06 be a4 79 fd bf 58 6e c9 3f 59 e6 a9 bf
       -0.13096614 -1.9802747 1.5736799 -1.3273422
000250 c8 d2 44 3f fb 30 bf be b2 b6 1b c0 59 ed 1f 3d
       0.76884127 -0.37342057 -2.4330258 0.03904471
000260 f1 dc 86 3f 2f 3d 5b bf 2c c2 27 bf e0 f9 1c bf
       1.0536176 -0.85640234 -0.6553066 -0.6131878
000270 85 a9 9e bf 7d 41 7c c0 b5 b2 ee 3f 83 7f a4 bf
       -1.2395483 -3.941497 1.8648287 -1.2851413
000280 a4 45 19 c0 9d 6d c4 bf e9 3d 83 bf 27 7c fc bf
       -2.3948755 -1.5345951 -1.0253268 -1.9725388
000290 a5 c3 9f 40 33 bc b2 3f 37 8c 84 3f d7 c1 0f 3f
       4.9926324 1.3963684 1.035529 0.5615515
0002a0 0d bd 8a c0 6d 76 38 40 e3 96 55 bf 5b 24 9d 3f
       -4.3355775 2.8822281 -0.8343336 1.227672
0002b0 c2 bc 99 3f 4e a5 01 bf 38 ab c0 bf 01 87 e4 bf
       1.2010729 -0.5064286 -1.5052252 -1.78537
0002c0 a9 67 03 c0 d8 bf a5 3f 41 bd 1d 3b ba 18 98 bf
       -2.053202 1.2949171 0.0024069103 -1.1882546
0002d0 20 86 26 3f b7 ac e2 3d ab a7 52 bf cb 04 dc 3f
       0.6504841 0.11068099 -0.8228709 1.7188963
0002e0 92 f1 62 3f 04 2b 84 40 4d 48 8c 3f 7f f0 80 40
       0.8864986 4.130251 1.0959564 4.0293574
0002f0 d3 d6 21 be c6 ad 28 bf bf 5e 13 3f f2 a6 08 be
       -0.15804605 -0.6589016 0.57566446 -0.13344935
000300 21 ce 09 40 d6 72 84 bf 37 ed 86 bf 76 22 aa bf
       2.153206 -1.0347545 -1.0541142 -1.3291767
000310 6c 99 17 be db 55 5d 3f 8e e4 b5 3e dc 5b 0c be
       -0.1480462 0.8645913 0.35525936 -0.13706917
000320 35 43 3e 40 01 24 6e 3e d0 3f 20 3f c9 63 1d bd
       2.972852 0.23255922 0.6259737 -0.03842524
000330 0d 02 a1 3e 3c 10 26 3d 8e a0 e9 3e bd 8f 40 3e
       0.31446877 0.040542826 0.45630306 0.18804832
000340 e6 6f ea 3f 5c d4 0a 3f db 55 af 3d e2 00 36 3f
       1.8315399 0.54230285 0.085612975 0.710951
000350 52 0f 28 bf ea 14 6b 3f 90 72 eb be ab 8b 70 bf
       -0.65648377 0.9182879 -0.45985842 -0.93963116
000360 f7 27 a9 3f d1 1f 31 c0 be d1 bc 40 34 f1 ca 3f
       1.3215321 -2.767567 5.9006033 1.5854859
000370 ab 2a ee 3f d5 a5 76 3f 6d ba e7 3d 5a 4c 64 be
       1.8606771 0.9634679 0.11314855 -0.22294751
000380 c2 aa 3d bf 54 21 22 bf 14 46 88 3f 0d f2 03 3f
       -0.7408868 -0.63332105 1.0646386 0.51541215
000390 33 61 9c c0 3b 6d fe 3e c5 08 6f 3d 63 85 7f 3f
       -4.886865 0.4969271 0.058357973 0.99812907
0003a0 47 86 e7 be 82 f4 36 3f 43 c6 fd 3f 2b 81 f6 be
       -0.45219633 0.7146684 1.982613 -0.48145422
0003b0 75 28 bb 3f ff 17 e9 3e 58 00 81 3f 75 ea 49 40
       1.4621722 0.4552612 1.007823 3.1549351
0003c0 d5 85 ac bd 6d ad db bf 20 74 1d bf ab 52 19 40
       -0.08423964 -1.71623 -0.6150532 2.3956707
0003d0 1f 04 91 bf 46 33 9a 3f 7b f0 c7 3f 96 09 42 3f
       -1.1329383 1.2046897 1.5620264 0.75795877
0003e0 4f 1f 23 3f 33 a0 44 3f 8e 93 ce 3e af 62 a4 bf
       0.6371965 0.76806945 0.4034695 -1.2842616
0003f0 8f c0 29 3f ae 69 19 3b 73 e6 ee bf 54 57 57 bf
       0.66309446 0.0023408937 -1.8664078 -0.8411763

fc2.weight f4 [128, 256]
000000 40 31 09 bc 56 8e 19 3f 22 f2 a1 3d 15 1b 83 3e
       -0.0083735585 0.5998281 0.07907511 0.256066
000010 40 53 1d 3e 23 aa 11 bf ea 92 41 3e 23 d5 fd bb
       0.15363789 -0.56900233 0.189037 -0.007746355
000020 bd 42 cd bd 93 a5 bb 3e 26 52 84 be c8 ae ff be
       -0.10022495 0.3664976 -0.25843924 -0.49938035
000030 e0 ef 48 be 71 bc 0e bf 3e 56 9c bf 3e 85 91 be
       -0.19622755 -0.5575629 -1.2213819 -0.28421968
000040 90 89 55 bf ef f1 94 3e cc 1f 48 3b c9 9e 97 bd
       -0.8341303 0.2909083 0.003053653 -0.07403333
000050 e7 b6 cc bf 92 61 b0 be d6 51 ae be 99 62 17 3f
       -1.5993317 -0.3444944 -0.3404681 0.59134823
000060 77 ce 9f bf b8 84 0d 3f fb 61 73 be 5d f1 bf be
       -1.2484883 0.5528064 -0.23767845 -0.37488833
000070 1c 1c e8 be 4f bb 74 3f eb e3 2a 3f f3 c3 74 3d
       -0.45333946 0.9559831 0.66754025 0.059757184
000080 ac 0d 30 be b3 1b f6 be 22 ba 76 3e 1c a8 86 be
       -0.17192715 -0.48068008 0.24094442 -0.26300132
000090 86 a2 8f bc cd 61 65 3e 83 8f 8b bd 02 6f 47 bf
       -0.017533552 0.2240059 -0.06814482 -0.7790376
0000a0 4f d9 5a 3f 87 f0 a5 bd ee 0e ed 3d 34 5b ea be
       0.85487837 -0.081025176 0.11575113 -0.45772707
0000b0 7d 0d e1 3e ab 2d 1b 3e 6a 8e ba 3e 75 81 b9 be
       0.43955603 0.1515414 0.36436778 -0.3623158
0000c0 5d 82 ad be 3b df b4 3e a3 47 40 3d 54 ee 85 be
       -0.33888522 0.3532656 0.046943318 -0.26158392
0000d0 7c f9 b1 3e d8 67 36 3e 12 b0 51 be 1d d1 75 be
       0.34760654 0.17813051 -0.20477322 -0.24005552
0000e0 25 0d ab 3e 9f a7 e2 3d 47 86 21 bf 2a a9 26 c0
       0.33408466 0.110671274 -0.63095516 -2.604075
0000f0 27 d0 c9 3e d0 2a 85 be e6 5a b4 be 9e cc 14 3e
       0.3941662 -0.26009226 -0.352256 0.1453118
000100 bc f6 26 be 44 76 63 bc 75 62 bb bc d4 4c aa bd
       -0.16305059 -0.013883177 -0.022874096 -0.08315435
000110 af 0a 65 3d 0d ef 97 3d 39 70 b9 3c 2c 16 18 bd
       0.05591839 0.07418642 0.02263652 -0.03713052
000120 b0 41 cb bf a3 15 e2 3e c3 1f e1 bc fd 45 3d bf
       -1.5879421 0.44157133 -0.027480965 -0.7393492
000130 b8 ed 01 3f 73 ba 30 3e 47 63 91 bf 45 c4 db bf
       0.50753355 0.17258625 -1.1358422 -1.7169272
000140 48 3b a9 bd 29 63 8e bd 02 96 41 bf 86 70 83 bc
       -0.0826326 -0.06952507 -0.7561952 -0.016044866
000150 8c 37 5b bd f4 d1 26 3f 4e 73 b4 3e 01 5a c8 bc
       -0.05351977 0.65164113 0.3524422 -0.02445698
000160 b1 c7 3f be 28 09 16 bf 82 22 7f bf 01 1e 84 3e
       -0.1872852 -0.5860772 -0.9966203 0.2580414
000170 3a 58 c8 bf a0 46 82 bf a3 d1 73 3d 84 0e 54 3e
       -1.5651925 -1.0177803 0.059526097 0.20708662
000180 eb fd 37 bd 65 89 66 3e a0 46 43 be 1a ea 7b 3e
       -0.04491989 0.2251335 -0.1906991 0.24601021
000190 08 69 2b 3e 01 0e a9 3e 04 ab a9 3e e7 27 2c be
       0.16739285 0.33018497 0.33138287 -0.16812097
0001a0 9f 3b ca 3e 45 2f 08 3f 85 8f 40 bf b4 f1 21 bf
       0.39498612 0.5319713 -0.75218993 -0.63259435
0001b0 63 30 0e 3e 24 3b 9a bf b2 07 bf 3e e3 06 88 be
       0.13885646 -1.2049298 0.3731056 -0.26567754
0001c0 43 3d 09 3f e5 c3 fd be 7e 78 53 bf c8 ff 72 bf
       0.536091 -0.49563518 -0.8260573 -0.9492154
0001d0 53 9d 0e be c3 02 b6 be 3b f1 98 be 47 67 80 3e
       -0.13927202 -0.35548982 -0.29871544 0.25078794
0001e0 75 ec d5 3e db c6 29 3f 2c c2 a7 3e dc 74 5c be
       0.41781965 0.66319054 0.3276533 -0.21528953
0001f0 fc 0b 91 3e 8c 27 aa 3c a9 04 a5 be 53 8b da be
       0.28329456 0.02077081 -0.32230118 -0.4268442
000200 6d 60 94 be 27 b2 54 3f 24 f7 bd be dd ef 30 bf
       -0.28979817 0.8308434 -0.37102616 -0.69116
000210 4a 01 ed bf fe cd 5c be 96 09 a1 3e 27 6c 2c 3f
       -1.8516018 -0.21562955 0.31452626 0.6735253
000220 10 2b 81 3e 9d fd e5 be 18 f8 24 be 48 ba f3 be
       0.25228167 -0.44920054 -0.16110265 -0.4760306
000230 7d 72 54 bd 9c d2 bf bd ce f3 0b c0 2d de f6 be
       -0.051866997 -0.093663424 -2.1867557 -0.48216382
000240 c9 4e 49 bf cb a7 ce be f6 38 85 3e 4e f8 36 bf
       -0.7863584 -0.4036239 0.2602002 -0.7147263
000250 c1 40 d9 bf 27 4e a9 bf a8 a0 5c 3d d7 c0 51 be
       -1.6972886 -1.3226975 0.05386415 -0.20483719
000260 eb 03 06 bf ee c3 7d bf d4 ec 84 bf 57 63 48 be
       -0.5234973 -0.9912709 -1.0384774 -0.19569145
000270 a2 fb f0 be 5c 5e 84 be 0a bb 54 3e 89 13 27 3f
       -0.4706698 -0.2585324 0.20774475 0.65264183
000280 c0 6e dd 3d ce 6f 68 bf 1b 61 d3 be db f5 c5 bd
       0.108121395 -0.907956 -0.41285023 -0.09666034
000290 aa 02 d6 bf f8 de 84 be 74 5d bb 3e 65 9a 0a bf
       -1.6719563 -0.25951362 0.36594737 -0.5414184
0002a0 0d a3 51 be 0b d4 7c 3e 77 bd 02 bd 01 3f d9 3e
       -0.20472355 0.24690263 -0.03191897 0.4243088
0002b0 b8 ca 87 3e 80 ee e6 be cc 3a a9 3d 3c 59 c6 bc
       0.2652185 -0.45103836 0.08263168 -0.024212472
0002c0 3e b6 b0 be 2d 2e cb bf 0c 9c 3e bf e3 87 43 c0
       -0.3451404 -1.5873467 -0.7445686 -3.0551689
0002d0 d1 8a 02 bf 19 4f 18 3f 17 69 99 bc de b7 92 bf
       -0.5099307 0.59495693 -0.018726869 -1.1462362
0002e0 ca 36 91 3d 7e 0d 2c be 3d c4 3a bf f7 9c 83 bd
       0.07090528 -0.16802022 -0.72955686 -0.06426423
0002f0 e3 1c e0 3c e3 76 1e 3e bc 4d 12 bf 1a 8b c7 be
       0.027357524 0.15475039 -0.57149863 -0.38973314
000300 00 e6 15 be e7 8e 39 3e e4 26 83 3b 13 e5 a3 be
       -0.1463852 0.18120919 0.004002439 -0.32010707
000310 e2 7c 18 3e 15 ec ea 3e e5 bd 15 bf 10 aa 1e bf
       0.14891389 0.4588324 -0.5849288 -0.61978245
000320 09 26 a6 bd 23 cf d0 be 28 da 0b bf 8f 99 8b 3c
       -0.081127234 -0.40783033 -0.54629755 0.017040996
000330 4c 49 93 3f 82 ad bf be ac de 4d 3e 2b a0 55 bf
       1.1506743 -0.37437063 0.20104474 -0.8344752
000340 34 af 0c be 55 0b ba be 72 3c da 3d 86 fc 50 3e
       -0.1373871 -0.3633677 0.1065606 0.2040883
000350 71 7a f9 bd 4a c2 92 bf b6 37 86 3d 91 eb 71 be
       -0.12181557 -1.1465542 0.06553595 -0.23625018
000360 32 9d 17 be 37 b4 85 be fe be aa bf 14 63 27 bf
       -0.14806059 -0.26114056 -1.3339536 -0.65385556
000370 f4 2c ab bf 98 15 b1 3e 58 a0 82 bf a3 c4 04 3c
       -1.3373094 0.34586787 -1.0205183 0.0081035225
000380 c7 3b f6 3e 78 87 53 be fa 47 25 3f 02 1f c9 bf
       0.48092481 -0.20657146 0.6456295 -1.5712588
000390 ea f6 a4 be 83 9b 2e bf f6 b8 97 3e 58 4c 09 be
       -0.3221963 -0.6820604 0.29633301 -0.13408029
0003a0 74 1f 30 be 01 6b de be 4e d3 c5 bd 10 dc c8 3e
       -0.17199498 -0.43441013 -0.09659444 0.39230394
0003b0 64 b9 18 3f 57 19 0f bd b0 22 0f c0 f7 10 5b 3b
       0.59657884 -0.034936275 -2.2364922 0.003342686
0003c0 29 cc c9 bb 88 39 13 bf b8 79 69 be 17 91 4f be
       -0.006158371 -0.5750966 -0.22800338 -0.20270191
0003d0 5c 15 a9 bf 6f 11 34 be 52 5e 5f bb ac a7 09 bf
       -1.3209643 -0.17584775 -0.003408332 -0.5377147
0003e0 1b 52 04 3e d4 cf 94 3d c0 88 4d bf 11 e9 c8 bd
       0.12921946 0.072662026 -0.8028679 -0.09810079
0003f0 18 d7 e8 bd 16 87 99 bc 66 44 4c 3f 67 ef 99 3e
       -0.11369151 -0.018741172 0.7979187 0.30065462

fc2.bias f4 [128]
000000 dd 64 69 40 65 50 81 3d e9 e9 04 40 9d 41 51 c0
       3.6467812 0.06314162 2.0767767 -3.2696297
000010 5f 30 ef 3f 2f 59 2e bf 87 93 d8 bd 6a 58 e6 bd
       1.8686637 -0.68104833 -0.105750136 -0.112473324
000020 88 23 4d 3e da f7 e4 bf e7 d3 fd bf d4 cf 41 3f
       0.20033085 -1.7888138 -1.9830292 0.75707746
000030 f0 04 15 40 fa 4d 53 3f f4 36 0e c0 09 7b ba bf
       2.3284264 0.8254086 -2.222104 -1.4568797
000040 a9 d4 ab 3f cd 90 94 3f 0d e9 6b bf 57 7c da bd
       1.3424274 1.160669 -0.9215248 -0.10668247
000050 1b bc c7 bf 1b b3 ca bf 48 22 86 bf 66 db 09 3f
       -1.560428 -1.5835909 -1.0479212 0.538504
000060 55 b7 dd bd cc 63 6c 40 8f d7 46 bf 4f ff f2 3f
       -0.108259834 3.693591 -0.77672666 1.8984164
000070 a6 15 ad bf be f2 cf bf d9 29 78 bd 7c ba ad 3f
       -1.3522232 -1.6245954 -0.060586784 1.3572536
000080 07 3c 5f bf 57 db 1c be 1a f3 0a bf 21 6e 0c c0
       -0.8720097 -0.15318047 -0.54277194 -2.1942217
000090 a3 c8 fe 3f cf 6d 89 bf 41 b1 31 c0 d4 80 94 3f
       1.990498 -1.0736636 -2.7764437 1.1601815
0000a0 15 ac 54 40 1f 34 44 40 27 c7 95 40 30 86 75 bf
       3.323003 3.0656812 4.6805606 -0.9590788
0000b0 d5 2b 1f 40 28 7f 42 bf 65 4e 3c 40 3c f5 9f bd
       2.4870503 -0.75975275 2.9422848 -0.078104466
0000c0 ec d6 02 41 78 03 fc bf b7 ef 47 40 34 3d ed 3f
       8.177471 -1.9688559 3.124006 1.8534303
0000d0 55 5d d0 3f 7f b2 a7 bf e5 e2 8d c0 e5 19 69 c0
       1.6278483 -1.3101348 -4.433947 -3.6422055
0000e0 d8 82 e0 bf 38 b0 e2 3f a1 34 89 3f 9e e5 21 bc
       -1.753993 1.7710028 1.0719186 -0.009881405
0000f0 b0 12 ed bf 4a 71 95 bc 2e 24 e4 bb 26 7f 46 3e
       -1.8521328 -0.018242497 -0.006962321 0.19384441
000100 2a ed e2 3f e4 1c a5 40 9f f2 a5 40 21 7e 5e c0
       1.7728627 5.1597767 5.185867 -3.4764483
000110 20 c2 0e c0 f0 37 63 c0 e0 cb 98 bf d4 9e 24 3f
       -2.2305984 -3.5502892 -1.1937218 0.6430485
000120 df 91 e8 40 cb a0 4a bf 50 0d 89 be 8a 00 06 be
       7.2678065 -0.791516 -0.2676797 -0.13086143
000130 86 77 28 40 5d 24 c9 bf d7 a7 4c bf fb 6c 7a c0
       2.6322951 -1.5714222 -0.79943603 -3.9129016
000140 0b 23 dc bb b8 cf 84 3f ca 81 cb 40 96 80 87 be
       -0.0067180446 1.0375891 6.3595934 -0.2646529
000150 19 7c b1 bf 26 dc 9e 40 ea 91 8a 40 21 04 59 c0
       -1.3865997 4.9643736 4.330312 -3.390877
000160 71 03 50 be 01 31 09 be e6 ac 8f 40 fb db 94 bd
       -0.20313813 -0.133976 4.489856 -0.072685204
000170 c4 7d 4c 40 c4 e8 90 bf 96 df 09 c0 aa 00 b9 3f
       3.1951761 -1.1321034 -2.1542716 1.4453328
000180 e9 49 24 c0 c7 7d 03 3f 76 2b a7 bf 55 95 53 bd
       -2.567011 0.51363796 -1.3060138 -0.051656086
000190 35 43 90 bc e7 cc 06 40 67 d0 8a c0 e9 71 d3 bc
       -0.017610172 2.1062562 -4.3379397 -0.025811153
0001a0 b1 14 c0 3f 43 5c 35 3f 57 ca 54 c0 f6 85 3f 3f
       1.5006315 0.70843905 -3.3248498 0.74813783
0001b0 b8 9c fa 3e 18 fe 3c bf cd ae 0d 40 6f 3b f1 bf
       0.48947692 -0.73825216 2.213794 -1.8846263
0001c0 54 7a 72 3f df 7c 83 bf 52 72 76 bd 78 da 1f 3f
       0.9471791 -1.0272483 -0.060167618 0.6244273
0001d0 81 f5 08 c1 46 16 a3 bf 6e 87 8e be 40 b5 ad bf
       -8.5599375 -1.2741172 -0.278377 -1.3570938
0001e0 68 55 f6 3f 92 59 6c be b8 2a 17 40 7f d2 bd 3f
       1.9244814 -0.23081043 2.3619823 1.4829863
0001f0 93 fd 05 3e 82 b7 9a 3f 63 5a c1 be 61 86 9b bf
       0.13085012 1.2087252 -0.37764272 -1.2150384

fc3.weight f4 [20, 128]
000000 53 b1 39 bf 21 44 30 be c6 1b b9 be ad aa 57 bf
       -0.725362 -0.17213489 -0.36154002 -0.84244806
000010 db 1a cd be 76 ac c3 bd 1b c1 0d bf 72 97 d3 bc
       -0.40059552 -0.09554379 -0.5537278 -0.02582905
000020 e4 4c f4 be 56 20 02 bf 4f fb 23 be 85 b7 86 be
       -0.47714913 -0.5083059 -0.16013835 -0.2631189
000030 e1 de 26 bf 3c af fa be e1 39 f3 bf dc 06 db be
       -0.65183836 -0.48961818 -1.9002038 -0.4277867
000040 41 0b ad bf 10 5b 2a bf 86 0e aa be c1 8c 58 bd
       -1.351906 -0.665452 -0.33214206 -0.05286861
000050 d2 65 f1 be 3d b0 01 be f5 9d b5 be be 95 ee be
       -0.47147995 -0.12664886 -0.35472074 -0.4659862
000060 76 e6 a2 be e5 8b ba be b6 bf b9 be fa 87 47 be
       -0.31816453 -0.36434856 -0.36279076 -0.19485465
000070 d9 41 ba be 53 1d 01 bf 10 2f 51 bf 40 2e 3c bf
       -0.36378363 -0.5043537 -0.81712437 -0.7350807
000080 10 e7 44 bf d9 93 9c be a2 a7 b1 be d3 db c9 be
       -0.76915073 -0.3058155 -0.34698206 -0.39425525
000090 8e b1 b3 be 8c 39 b4 be bb 8e 90 bf f6 2f 18 be
       -0.350964 -0.35200155 -1.1293558 -0.14862046
0000a0 f4 a3 04 bf 8a 6f 4e bf 94 be 9d be 06 7a fa be
       -0.5181267 -0.80638945 -0.30809462 -0.48921221
0000b0 5d cd 03 bf 0a ae e5 be 2d ca ff be 45 9a 84 3d
       -0.51485234 -0.44859344 -0.49958935 0.06474737
0000c0 64 7d 8a be 69 a8 21 bf 35 00 e1 be 4c 91 bf be
       -0.2704879 -0.631476 -0.4394547 -0.3741554
0000d0 14 18 34 bf 85 e1 ca be 31 8f 44 bf 1c 54 78 c0
       -0.7034924 -0.39625183 -0.7678099 -3.8801336
0000e0 38 c0 d4 be d0 2b f2 be 4b c4 57 bf a0 34 07 bf
       -0.415529 -0.4729905 -0.84283894 -0.52814674
0000f0 c7 45 76 be 2d 97 02 bd 2e 60 60 be 93 b5 03 bf
       -0.24050055 -0.031882454 -0.2191169 -0.51448935
000100 79 f3 1d bf a8 2e 81 be e4 a8 f2 be 63 2f a4 be
       -0.61699635 -0.25230908 -0.47394478 -0.32067403
000110 79 ad ce be 48 19 13 bf 8c ca f6 bd fd f0 7b bf
       -0.40366724 -0.5746045 -0.120503515 -0.98414594
000120 68 ec 99 be e9 0d 1f bf 77 6f f7 be 21 f4 99 bb
       -0.30063176 -0.621306 -0.48327228 -0.004698292
000130 67 08 e1 be 62 83 1a bf 85 b3 b9 be 2d 7e b4 c0
       -0.43951723 -0.60356724 -0.36269775 -5.6404023
000140 6d 73 ba be c3 78 91 be b1 e2 3d bd 3a 26 75 be
       -0.36416188 -0.28412446 -0.046358768 -0.23940364
000150 3d 39 07 bf 51 86 c9 be d0 7f 2f bf eb 9b da be
       -0.52821714 -0.39360288 -0.685544 -0.4269708
000160 7c a1 47 bf e6 d9 2b bf e2 15 dc be e0 9d fb bc
       -0.7798078 -0.6712936 -0.42985445 -0.03071493
000170 48 8b f7 be 6c c8 46 bf 67 9a 1c bf fe 1c ed be
       -0.4834845 -0.7764957 -0.611731 -0.46311182
000180 6e 1e 6d c0 ce fc 18 bf 38 4a ba be 43 e9 01 bf
       -3.7049823 -0.5976075 -0.3638475 -0.50746554
000190 f8 2c d4 be 56 5c 22 bf e7 b3 17 bf b6 0c 2e c0
       -0.41440558 -0.63422143 -0.59258884 -2.7195258
0001a0 85 55 8b be 5a 3f 96 bf b5 4d b0 be 54 19 fd be
       -0.27213684 -1.1738083 -0.34434286 -0.49433386
0001b0 f6 ba 04 bf 88 e5 6e bf b9 1e d1 be d4 06 f7 be
       -0.5184778 -0.93318987 -0.40843752 -0.48247397
0001c0 74 31 77 bf 12 5f 73 bf b5 9d 6c 3c c2 a8 a6 bd
       -0.96559834 -0.9506694 0.014441897 -0.08137657
0001d0 2f bc 94 bd 0b 7e 14 bf 11 88 04 bf b9 44 ee be
       -0.07262456 -0.58004826 -0.5177012 -0.46536806
0001e0 e1 6b d1 be ac 41 62 bd f8 ff fe be 4c 1d 91 be
       -0.40902618 -0.05523841 -0.49804664 -0.28342664
0001f0 78 5f b9 be 96 0d c4 be 12 0c 60 be 52 a9 5d bf
       -0.3620565 -0.38291615 -0.21879604 -0.8658649
000200 fb c3 30 bf 53 46 79 be a7 1d d4 be 3a 67 43 bf
       -0.6904904 -0.24343233 -0.41428873 -0.76329386
000210 8a 1a a3 be 7f 5b ee bd 30 bc ed be 78 73 0b be
       -0.31856185 -0.11638545 -0.46432638 -0.13618267
000220 03 95 a6 be fe 7b df be 7d bc 6f be 24 4f e5 be
       -0.32535562 -0.43649286 -0.23411746 -0.44786942
000230 1e 34 1e bf 87 8f 06 bf 14 f7 ec bf 38 79 c9 be
       -0.61798275 -0.52562755 -1.8512902 -0.39350295
000240 41 dc af bf cd a5 19 bf 96 5f ef be d0 8d bf bd
       -1.3739091 -0.60018617 -0.46752614 -0.093532205
000250 6c ae 12 bf 24 76 4f be 18 38 92 be 64 d8 ff be
       -0.57297397 -0.20259911 -0.2855842 -0.4996978
000260 6c 7b 8f be 80 88 5c be 73 bc e2 be 5e 18 14 be
       -0.2802385 -0.21536446 -0.442844 -0.1446242
000270 b1 ad 02 bf f3 ba eb be 44 12 4c bf 34 96 73 bf
       -0.5104628 -0.46041068 -0.7971537 -0.95151067
000280 11 db 50 bf c4 2a d4 be 31 a0 80 be 89 8a d6 be
       -0.8158427 -0.41438878 -0.25122216 -0.4190257
000290 aa 91 a0 be 67 55 cb be da 6e 7d bf 11 3c 6d be
       -0.31361133 -0.39713594 -0.9899727 -0.23167445
0002a0 2d 13 00 bf c0 61 3c bf be 1f b2 be ea c8 c7 be
       -0.5002926 -0.73586655 -0.34789842 -0.39020473
0002b0 4a f2 c1 be ef 3c ae be a0 ab 15 bf 77 7b 58 bd
       -0.37880164 -0.34030864 -0.58465004 -0.05285212
0002c0 e8 2f ef bc 18 5e 30 bf 06 19 03 bf c0 65 df be
       -0.029197648 -0.68893576 -0.5121006 -0.43632317
0002d0 c5 2a 25 bf a5 a8 da be 9b 84 48 bf d9 05 56 c0
       -0.64518386 -0.4270679 -0.7832734 -3.344107
0002e0 64 28 e8 be aa 59 b7 be fd 4d 49 bf f8 32 18 bf
       -0.45343316 -0.35810596 -0.78634626 -0.5945277
0002f0 79 58 9f be 25 ff 7a bc fc a4 4b be 97 f2 d5 be
       -0.31122187 -0.01531962 -0.19887155 -0.41786644
000300 36 4e 16 bf f1 04 5f be 22 83 a4 be b8 79 84 be
       -0.5871309 -0.21779229 -0.32131296 -0.25874114
000310 38 03 cd be b2 b1 18 bf ad bb d6 bd c3 b6 55 bf
       -0.40041518 -0.5964614 -0.10485015 -0.83482
000320 88 04 47 be 7a 48 27 bf 96 48 fa be 0f bc b3 bd
       -0.19435322 -0.65344965 -0.48883504 -0.08776104
000330 35 03 01 bf b8 93 27 bf 4f cf b8 be 5d c5 89 c0
       -0.5039552 -0.65459776 -0.36095664 -4.305342
000340 38 50 ce be 2d 21 95 be f6 6d 36 bd 0e 75 cf be
       -0.40295577 -0.29126874 -0.04453846 -0.40518993
000350 21 5d d4 be 04 6c 9e be 69 a9 04 bf e9 4c e7 be
       -0.41477302 -0.30941784 -0.51821 -0.45175865
000360 94 50 4c bf a8 2c 2d bf 26 d6 d4 be 24 eb 5d b7
       -0.7981045 -0.67646265 -0.41569632 -1.3227374e-05
000370 2e 4f d2 be 57 3e 68 bf 02 b7 1c bf 49 6c c0 be
       -0.41076034 -0.90720123 -0.6121675 -0.37582615
000380 e7 6d 32 c0 08 4d 13 bf 37 33 d5 be 43 4c ec be
       -2.787958 -0.57539415 -0.41640636 -0.46151933
000390 17 d9 f9 be 9f 16 21 bf 1a 14 01 bf e4 f5 2f c0
       -0.4879844 -0.6292514 -0.504213 -2.749383
0003a0 8c dd c8 be 89 63 9b bf dd 9b be be cc 6b 0e bf
       -0.39231527 -1.2139751 -0.3722829 -0.55633235
0003b0 9d db e8 be ed 2f 60 bf d4 9b df be 4a 89 03 bf
       -0.45480052 -0.8757313 -0.43673575 -0.5138136
0003c0 9f 4f 77 bf b3 b6 81 bf d2 ff 01 3d f4 3a c4 bd
       -0.9660587 -1.013388 0.03173811 -0.09581557
0003d0 8f bd 1b be 13 d5 17 bf 59 04 fb be f6 65 fe be
       -0.1520903 -0.593095 -0.49026754 -0.49687165
0003e0 e5 32 c7 be 97 7e 0f be 76 a1 ba be e9 b1 6f be
       -0.38906017 -0.14013134 -0.3645131 -0.23407711
0003f0 f6 55 e9 be 01 1d 05 bf 26 f3 b7 be 9a 13 52 bf
       -0.45573395 -0.5199738 -0.35927695 -0.8206116

fc3.bias f4 [20]
000000 6a 8c 18 be a6 05 94 3f 30 97 1c bf a9 6f 43 be
       -0.14897314 1.1564224 -0.61168194 -0.19085564
000010 a4 13 a3 bd 56 59 89 3f 4a a6 ea be f7 75 49 3f
       -0.079627305 1.0730388 -0.45829993 0.78695625
000020 d0 93 f1 3e ce 0f 7e bf 3b 81 97 bf 2e e9 30 3f
       0.47183084 -0.99242866 -1.1836313 0.69105804
000030 54 9c 94 bf c8 42 42 bf 0d 39 7e 3e 24 f5 f3 be
       -1.1610208 -0.7588315 0.2482645 -0.47647965
000040 f1 d8 63 bf 34 60 c1 3d e3 51 36 bf 09 46 77 bf
       -0.890029 0.094421774 -0.712187 -0.9659124
